modello.pth (torch, 55309 bytes, 8 tensors)

common.0.weight f4 [128, 32]
0	0x3d357bd0	0.04430753
1	0xbe235c2f	-0.15953134
2	0x3da41dba	0.080134824
3	0x3e16f1bf	0.14740656
4	0x3daadef2	0.08343305
5	0x3de15be6	0.11003856
6	0x3e33a05b	0.1754164
7	0xbd967065	-0.07345656
8	0x3df9900e	0.121856794
9	0x3e1046d3	0.14089517
10	0xbe2aa4d4	-0.1666444
11	0x3c7fa450	0.01560314
12	0xbd56a878	-0.052406758
13	0x3d849802	0.06474306
14	0x3dd5b15a	0.10434218
15	0x3db4f6e6	0.08836155
16	0x3c56b040	0.013103545
17	0x3dd74bca	0.105125025
18	0xbc32f760	-0.010923237
19	0x3e2d5449	0.16926683
20	0x3d78af70	0.060714185
21	0x3de225aa	0.1104234
22	0x3d06c938	0.03290674
23	0xbc7f4a10	-0.015581623
24	0x3e045d09	0.12926115
25	0x3e04f4f3	0.12984066
26	0xbdbda3e2	-0.09259774
27	0xbd769ade	-0.060206287
28	0x3d84cfb4	0.06484929
29	0xbdef8f02	-0.116971985
30	0x3e02e035	0.1278084
31	0x3c1ccee0	0.009570807
32	0x3d862272	0.06549539
33	0x3d94a702	0.07258417
34	0x3dc0e87e	0.09419344
35	0x3d80533e	0.06265877
36	0xbda7d6a3	-0.081952356
37	0xbdc13d58	-0.094355285
38	0x3df14426	0.117805764
39	0xbdb57610	-0.08860409
40	0xbd155d44	-0.0364659
41	0x3d0d2830	0.034462154
42	0xbd5c8bc2	-0.05384422
43	0xbddd967e	-0.1081972
44	0x3cfb95b8	0.03071104
45	0xbda04992	-0.078265324
46	0x3da74d9e	0.08169101
47	0x3e151fed	0.1456296
48	0x3d86108e	0.06546126
49	0x3e150173	0.14551334
50	0xbcfdcad0	-0.030980498
51	0x3ddc8066	0.107666776
52	0xbdffe8cd	-0.12495575
53	0x3d936c46	0.07198386
54	0x3dcb775a	0.09934874
55	0x3d6e3100	0.0581522
56	0xbbd0ac00	-0.0063681602
57	0x3e22fd05	0.15916832
58	0xbe05e390	-0.1307509
59	0xbd817e97	-0.06322973
60	0x3e1ec7c1	0.15505888
61	0xbdd0f846	-0.102036044
62	0x3d6ea1d4	0.0582598
63	0x3e1bc2cd	0.1521103
64	0xbc81ba78	-0.015835986
65	0xbd84aaf8	-0.06477922
66	0xbd378ee4	-0.044814005
67	0x3d8974a8	0.067117035
68	0xbd192d74	-0.037396863
69	0xbd93ad05	-0.07210735
70	0x3d95f3e8	0.07321912
71	0x3ce200a0	0.027588189
72	0x3e2428d3	0.16031198
73	0xbd3da748	-0.04630211
74	0x3e24eecd	0.1610672
75	0xbe0a9a9a	-0.13535538
76	0xbd85c597	-0.06531828
77	0x3da0d67e	0.07853411
78	0xbe1f718a	-0.15570655
79	0xbda4990e	-0.08037005
80	0x3d667668	0.056265265
81	0x3d466e54	0.04844506
82	0x3e0e9f7d	0.13928027
83	0x3e0e9b3f	0.13926409
84	0x3c6cc560	0.014451355
85	0xbd8f86c2	-0.07008125
86	0x3d00cd94	0.031446055
87	0x3dbca126	0.09210424
88	0xbdb62fa0	-0.088958025
89	0xbdfa05a3	-0.12208106
90	0x3e20c2e9	0.15699352
91	0x3e1eea9b	0.15519182
92	0xbdb6d437	-0.089271955
93	0x3daa3c2e	0.083122596
94	0x3ce756e0	0.028239667
95	0x3c1cf450	0.009579733
96	0x3d83c706	0.06434445
97	0x3dd895d2	0.10575451
98	0xbe08138a	-0.13288704
99	0xbce90e88	-0.028449312
100	0xbc35b8c0	-0.011091411
101	0x3df3eae6	0.11910038
102	0x3dcfb3aa	0.1014169
103	0x3d7ae168	0.06125012
104	0x3d90836e	0.07056318
105	0x3e2787a5	0.16360338
106	0x3b41d380	0.0029575527
107	0xbd5b5572	-0.053548284
108	0x3d413e40	0.047178507
109	0x3acbb800	0.0015542507
110	0xbdb36a49	-0.08760507
111	0xbdf6a75d	-0.12043641
112	0x3d574600	0.05255699
113	0x3e17a149	0.14807619
114	0x3e1e168d	0.1543829
115	0xbe0b4d30	-0.13603663
116	0xbe3369f7	-0.17520891
117	0xbe27c694	-0.16384345
118	0xbe01aff0	-0.12664771
119	0x3e0cf2c7	0.13764487
120	0xbdcd0275	-0.10010234
121	0xbc830db0	-0.015997738
122	0xbe2b0364	-0.16700512
123	0x3e072e69	0.13201298
124	0xbd4c7148	-0.04991272
125	0xbe052ae0	-0.13004637
126	0xbe2b5aba	-0.16733828
127	0xbdec8e40	-0.115505695
128	0x3ce32a80	0.027730227
129	0x3e2feff3	0.17181377
130	0xbde83181	-0.11337567
131	0x3ceaef68	0.02867861
132	0x3e17c9ff	0.14823149
133	0x3e338519	0.17531241
134	0x3df724de	0.12067579
135	0xbcf629f8	-0.03004931
136	0xbdf50ec4	-0.11965707
137	0x3dea3d6a	0.11437495
138	0x3df19742	0.11796428
139	0xbdfd0350	-0.123541474
140	0xbe2499e2	-0.16074327
141	0x3d9d4b7e	0.076804146
142	0xbe16b388	-0.14716923
143	0x3ca2c390	0.019868642
144	0xbdca868c	-0.09888944
145	0xbd866141	-0.065615185
146	0xbded9d04	-0.11602214
147	0xbdf12499	-0.117745586
148	0x3d21177c	0.039329037
149	0x3e0d332f	0.13789056
150	0xbe013d28	-0.12620986
151	0x3dcfbb96	0.10143201
152	0xbcbc3710	-0.022975475
153	0xbb28c640	-0.0025752932
154	0xbe2723f5	-0.1632231
155	0x3e24b8cd	0.16086121
156	0xbe348c07	-0.17631541
157	0x3dd991e6	0.10623531
158	0xbdda15a0	-0.10648656
159	0x3d8da18e	0.0691558
160	0xbdd8767d	-0.10569475
161	0xbdcd86aa	-0.10035451
162	0xbe21a512	-0.15785626
163	0x3dc85b96	0.09783094
164	0xbe23e4b4	-0.16005212
165	0xbd02d810	-0.031944335
166	0xbcbf5b38	-0.023358926
167	0xbd8ed75d	-0.06974671
168	0x3d38b49c	0.045094118
169	0x3cff8308	0.03119041
170	0xbd6c8cd8	-0.057751507
171	0xbd864c59	-0.06557531
172	0x3e0a436b	0.1350228
173	0x3db4e256	0.08832233
174	0x3dc9c9f2	0.09852971
175	0x3de0396e	0.10948454
176	0xbe1afa74	-0.15134603
177	0x3e1872cd	0.14887543
178	0x3abe7a00	0.0014532208
179	0xbdff602d	-0.12469516
180	0xbdc34ea0	-0.09536481
181	0x3ddfcc9a	0.109276965
182	0xbda5f25e	-0.081028685
183	0x3d8d4878	0.06898588
184	0x3d4bb8a4	0.049736634
185	0x3dbdb01a	0.09262104
186	0xbdb2150a	-0.08695419
187	0xbb49e200	-0.0030804873
188	0xba218a00	-0.0006162226
189	0x3da3841e	0.07984184
190	0x3e238021	0.15966846
191	0x3d9f7dee	0.07787691
192	0x3dec2f66	0.11532478
193	0x3c195b00	0.009360075
194	0xbe25b608	-0.1618272
195	0x3d8c6810	0.06855786
196	0xbe11b774	-0.14230138
197	0x3e0a5cdb	0.13511984
198	0xbdc1ae84	-0.09457114
199	0xbcf94ba8	-0.030431584
200	0xbde3be42	-0.11120273
201	0xbca4f620	-0.020136893
202	0xbde2a896	-0.110673115
203	0x3c2e0920	0.010622293
204	0xbe1a5b7b	-0.1507396
205	0xbccc6ee0	-0.024955213
206	0x3ce6b440	0.028162122
207	0x3e06f411	0.13179041
208	0x3d42e918	0.047585577
209	0x3e337ff7	0.17529283
210	0x3cda2c60	0.026632488
211	0x3d90051c	0.070322245
212	0xbc06d880	-0.008230329
213	0xbd29c974	-0.041451886
214	0x3cd27540	0.025690675
215	0x3e0ac1b1	0.1355045
216	0xbd2db110	-0.042405188
217	0xbcd8f9f8	-0.026486382
218	0xbe141f0a	-0.14464965
219	0xbe28dc4e	-0.1649029
220	0x3e07dbef	0.13267492
221	0x3dcc0ab2	0.099629775
222	0xbd5c602e	-0.05380266
223	0xbca35ed8	-0.019942686
224	0x3d6ec9dc	0.058297977
225	0xbe1265a6	-0.14296588
226	0xbdbf8bcf	-0.09352838
227	0x3c34d8d0	0.01103802
228	0x3d678d00	0.056530952
229	0x3c6166c0	0.013757408
230	0x3d03e010	0.032196105
231	0xbd92185e	-0.07133554
232	0xbd876361	-0.06610752
233	0x3e2bf50d	0.16792698
234	0x3e25153b	0.1612138
235	0x3db128ea	0.08650382
236	0x3e033f7f	0.1281719
237	0x3dc7755e	0.09739183
238	0xbcdb1f90	-0.026748449
239	0x3cfb3140	0.030663133
240	0x3c900820	0.017582
241	0x3dfd059e	0.12354587
242	0xbda542e2	-0.080693975
243	0xbd163408	-0.036670715
244	0xbe04fe48	-0.12987626
245	0xbe0bb888	-0.13644612
246	0xbcd15118	-0.025551364
247	0x3e0aab99	0.13542022
248	0xbc74a2e0	-0.014931411
249	0x3e246cf3	0.16057186
250	0xbcaa9a00	-0.020825386
251	0x3e2bec07	0.16789256
252	0x3d3d4800	0.046211243
253	0x3e026c2d	0.12736578
254	0xbdaa5204	-0.083164245
255	0xbdf5d92a	-0.120043114

common.0.bias f4 [128]
0	0x3acfad00	0.0015844405
1	0x3d82d5a8	0.06388408
2	0xbbca4180	-0.006172359
3	0xbd3c7e88	-0.046019107
4	0xbc621a60	-0.013800234
5	0xbc74ac90	-0.01493372
6	0xbca78b10	-0.020452052
7	0xbc490970	-0.0122703165
8	0xbdc7cebc	-0.09756228
9	0x3db1a38e	0.08673774
10	0x3d29a000	0.041412354
11	0xbccd8740	-0.025088906
12	0x3d02e588	0.03195718
13	0xbc86cf50	-0.016456276
14	0xbc89fc98	-0.016844079
15	0x3e2620ef	0.162235
16	0xbd5647fe	-0.05231475
17	0xbba01460	-0.0048852414
18	0xbd39da58	-0.045374244
19	0x3e32e925	0.1747175
20	0xbd52e020	-0.051483274
21	0xbe2af5a8	-0.16695273
22	0x3df6f6f6	0.12058823
23	0xbddb7731	-0.10716093
24	0x3dd8344a	0.10556848
25	0xbe075fed	-0.13220187
26	0xbd649fac	-0.055816337
27	0xbd350930	-0.044198215
28	0xbe2d4b75	-0.16923316
29	0x3cd46f80	0.025932074
30	0x3d85cc8a	0.06533153
31	0xbe0f333e	-0.13984391
32	0xbd42e864	-0.047584906
33	0xbe072fbd	-0.13201804
34	0xbbfcc020	-0.007713333
35	0x3da98a76	0.082783625
36	0xbcd131a8	-0.025536373
37	0x3e3458cf	0.17612003
38	0x3d158a30	0.03650874
39	0xbdbe326f	-0.09286963
40	0x3dc69bd2	0.09697689
41	0x3e07af1d	0.13250394
42	0xbdfa8923	-0.12233188
43	0x3e173697	0.14766918
44	0x3d2ff560	0.042958617
45	0xbd8dbd13	-0.06920829
46	0xbe2d5155	-0.16925557
47	0x3e041a39	0.12900628
48	0x3cee2840	0.029071927
49	0xbd8a3671	-0.06748665
50	0x3d2a7be8	0.041622072
51	0x3d9d67d6	0.07685821
52	0x3bcfe820	0.00634481
53	0xbe0386d7	-0.12844406
54	0x3e02cab1	0.12772633
55	0xbdd02f36	-0.10165255
56	0xbe174c20	-0.14775133
57	0x3e30fc17	0.17283665
58	0xbaf25e00	-0.0018491149
59	0x3d0edb08	0.034876853
60	0xbe02d058	-0.1277479
61	0x3c18fb50	0.009337261
62	0x3e0a38c9	0.13498224
63	0xbe29fd20	-0.16600466
64	0x3d180828	0.037117153
65	0x3ceaad70	0.028647155
66	0xbe071404	-0.13191229
67	0x3da7dcee	0.08196436
68	0x3dba16a6	0.09086351
69	0xbd7073f2	-0.058704324
70	0xbd980b1d	-0.07423995
71	0xbda2d159	-0.07950086
72	0xbe07d294	-0.13263923
73	0xbcef86f0	-0.029239148
74	0xbd82f709	-0.063947745
75	0xbddbb4ff	-0.10727882
76	0xbcb72120	-0.022354662
77	0xbddcbd4d	-0.10778294
78	0x3ca96b68	0.020681098
79	0xbd7d38d4	-0.061821774
80	0xbe208fc0	-0.15679836
81	0x3d22fe38	0.039793223
82	0xbd32bd34	-0.04363747
83	0x3dc48ac2	0.095967785
84	0x3c9879a8	0.018612698
85	0xbe205cc8	-0.15660393
86	0x3de2c562	0.11072804
87	0xbd68e93c	-0.056863055
88	0x3da66c92	0.08126177
89	0xbdf857a4	-0.12126091
90	0xbd50605c	-0.050873145
91	0x3d5368c8	0.0516136
92	0x3dd5d99a	0.10441895
93	0x3dacdb12	0.08440222
94	0xbddd5b1e	-0.10808395
95	0xbce32b68	-0.027730659
96	0xbd9c4fca	-0.07632406
97	0xbd06862c	-0.0328428
98	0xbd6522c6	-0.055941366
99	0xbdac7e17	-0.08422487
100	0x3cf6e8a0	0.030140221
101	0xbe25b5a4	-0.16182572
102	0xbe0e13bc	-0.13874716
103	0x3d2ae3ec	0.04172127
104	0xbe08e940	-0.13370228
105	0xbdde2c09	-0.10848243
106	0xbd1dde84	-0.038542286
107	0x3e18b1b7	0.14911543
108	0xbe188586	-0.14894685
109	0xbcbf1b88	-0.023328558
110	0x3e1ed741	0.155118
111	0x3d74ea24	0.059793606
112	0x3deceeca	0.11568983
113	0xbe035cc6	-0.12828359
114	0x3dc23ace	0.09483872
115	0x3deaf4da	0.11472483
116	0xbd585dc0	-0.052823782
117	0x3c687f10	0.01419045
118	0xbe1c7509	-0.1527902
119	0xbd1aecac	-0.037823364
120	0x3deeaaaa	0.11653645
121	0x3bb825c0	0.0056197345
122	0x3d263c84	0.040585056
123	0xbe33cbb8	-0.17558181
124	0x3d4bd43c	0.04976295
125	0xbe23e3bc	-0.16004843
126	0x3e0eaae7	0.13932382
127	0xbc9a89b0	-0.018864483

common.2.weight f4 [64, 128]
0	0xbca6b958	-0.02035205
1	0x3d4c1132	0.049821086
2	0x3d90f74b	0.070784174
3	0xbda1aa1c	-0.07893774
4	0xbd81e4a1	-0.06342436
5	0x3d48d51a	0.049031354
6	0xbd04573b	-0.032309752
7	0x3d6767ee	0.0564956
8	0x3d497602	0.049184807
9	0xbc8318d4	-0.01600305
10	0x3d27e33a	0.040988185
11	0xbda8fc3b	-0.08251234
12	0xbd264149	-0.040589605
13	0x3d1bcfba	0.0380399
14	0x3d2283e2	0.039676555
15	0xbcb7e100	-0.022446156
16	0xbbff1030	-0.007783912
17	0x3d080c7e	0.03321504
18	0x3cc86aa8	0.02446492
19	0x3db12095	0.08648793
20	0x3db29607	0.08720022
21	0x3d86ddd1	0.06585277
22	0x39ea4300	0.00044681877
23	0xbd245eb5	-0.040129382
24	0x3d973cf9	0.073846765
25	0xbbe30c70	-0.006928973
26	0x3ccad790	0.024760991
27	0xbd9c6adf	-0.076375715
28	0xbbeab190	-0.0071622804
29	0xbd80c278	-0.06287092
30	0xbba1d150	-0.004938282
31	0xbd02ec0e	-0.0319634
32	0xbd501479	-0.050800774
33	0xbdaa6d1d	-0.08321593
34	0xbd79abef	-0.060954984
35	0xbc531390	-0.012883082
36	0x3d2db5d6	0.04240974
37	0xbc28e398	-0.010308169
38	0xbc02fc48	-0.007994719
39	0xbd375bc2	-0.04476524
40	0x3cbcca80	0.023045778
41	0xbd347fdc	-0.04406725
42	0xbda5813b	-0.080812894
43	0x3cbb8d74	0.022894599
44	0xbccfd764	-0.025371261
45	0x3c73edc0	0.014888227
46	0xbd510a04	-0.051034942
47	0xbdac60b4	-0.08416882
48	0xbb3f9600	-0.0029233694
49	0x3d77858e	0.060430102
50	0xbd1f38bd	-0.03887247
51	0x3da46a07	0.080280356
52	0xbd8a4afe	-0.06752585
53	0x3d2a2c86	0.041546367
54	0xbcc57410	-0.024103194
55	0xbda6e07f	-0.08148288
56	0xbd27efe5	-0.041000266
57	0xbdaba11e	-0.0838034
58	0x3d4f6096	0.05062922
59	0x3d826c81	0.06368352
60	0xbc8a328c	-0.016869806
61	0x3be18c30	0.0068831667
62	0x3cb0d6a8	0.021586731
63	0xbc5de1c0	-0.0135425925
64	0x3c10f998	0.00884857
65	0xbd446013	-0.047943186
66	0xbc1ff110	-0.009762064
67	0x3a0f5f00	0.0005469173
68	0x3c8c21d4	0.017105974
69	0xbd1e12a9	-0.038592014
70	0x3d3bcaaa	0.045847572
71	0x3ba215c0	0.0049464405
72	0x3d5b832e	0.0535919
73	0x3d9675bd	0.073466755
74	0xbd25ea34	-0.040506557
75	0x3be36300	0.006939292
76	0x3a028b80	0.00049798936
77	0xbc1e8910	-0.009676233
78	0x3d48d186	0.049027942
79	0xbd6018a5	-0.054711003
80	0x3d2097b6	0.039207183
81	0xbd2f6dda	-0.042829372
82	0xbd9927bf	-0.07478284
83	0x3d946407	0.07245641
84	0x3c5e2ac0	0.013559997
85	0x3d28f2ca	0.041247167
86	0x3daac737	0.083387785
87	0x3cf724a4	0.030168839
88	0xbd6ae2ec	-0.057345316
89	0xbc93c42c	-0.018037878
90	0x3c53ac20	0.012919456
91	0x3db0f079	0.086396165
92	0xbd8b2286	-0.06793694
93	0x3cff5324	0.031167574
94	0x3d9313c1	0.07181502
95	0x3dac011f	0.08398651
96	0xbdaf3b7d	-0.08556268
97	0x3d46d216	0.048540197
98	0x3c51b110	0.012798563
99	0xbc96b174	-0.018395163
100	0x3cc75850	0.024334103
101	0xbd868910	-0.06569111
102	0x3c65b370	0.014019832
103	0x3c78bb30	0.015181348
104	0xbd75af67	-0.05998173
105	0x3c8b25a8	0.01698573
106	0x3c254050	0.010086134
107	0x3cd89938	0.026440248
108	0xbd6de022	-0.058075078
109	0xbd6c666e	-0.057714872
110	0x3d47979e	0.048728578
111	0x3bb98240	0.005661279
112	0xbd82ff35	-0.06396333
113	0x3c66bee8	0.014083602
114	0xbd86d962	-0.06584431
115	0x3d228b4e	0.039683633
116	0x3d48127e	0.04884576
117	0xbbcc9f70	-0.0062445924
118	0xbd2e6845	-0.042579908
119	0x3c76ac28	0.015055694
120	0x3d855a99	0.06511421
121	0xbd2b2b1c	-0.04178916
122	0x3d804b73	0.06264391
123	0x3d7a5b8a	0.061122455
124	0xbc701120	-0.01465252
125	0xbd84acbe	-0.064782605
126	0x3d841163	0.06448629
127	0xbd0cecb8	-0.03440544
128	0x3cdcde44	0.026961453
129	0xbd654223	-0.055971276
130	0xbd0d2e0a	-0.034467734
131	0xbc187450	-0.009305075
132	0x3d33303e	0.04374718
133	0x3d45ef3e	0.048323862
134	0xbcaff150	-0.021477371
135	0x3d117ec8	0.0355213
136	0x3cdae62c	0.026721083
137	0xbd548077	-0.051880326
138	0xbd603c6e	-0.05474513
139	0xbbe9d900	-0.007136464
140	0x3cb4d674	0.022074915
141	0xbd9330ae	-0.07187019
142	0x3ac32c40	0.0014890507
143	0xbc97940c	-0.018503211
144	0x3ce8ad38	0.02840291
145	0xbce5cb54	-0.028051056
146	0xbd855634	-0.065105826
147	0x3cf9e8f8	0.030506596
148	0x3ca4a140	0.020096421
149	0xbcb186c4	-0.021670707
150	0x3d42e7aa	0.047584213
151	0xbaa24f40	-0.0012383237
152	0x3cb93ecc	0.022612952
153	0xbb3c5500	-0.0028737187
154	0x3d36b9d6	0.04461082
155	0xbd48ea6b	-0.049051683
156	0x3d9a5ea5	0.07537583
157	0x3d22ebf6	0.03977581
158	0xbd684953	-0.056710552
159	0x3bf43ee0	0.0074537843
160	0x3da5c8a1	0.080949076
161	0xbd71c725	-0.05902781
162	0xbcdb7446	-0.026788842
163	0xbd875ca1	-0.066094644
164	0xbd400a13	-0.046884608
165	0xbda0917a	-0.078402475
166	0xbd620fd1	-0.055190865
167	0xbd66cff1	-0.056350652
168	0x3cbf83b8	0.023378238
169	0xbd7e5966	-0.062096976
170	0x3bc74850	0.0060816184
171	0x3d108df8	0.035291642
172	0xbd649c0e	-0.055812888
173	0x3cca6568	0.024706557
174	0x3d06b0ca	0.032883443
175	0xbc797100	-0.015224695
176	0x3d04f8da	0.032463886
177	0xbda67e7e	-0.08129595
178	0x3c81e5c4	0.015856631
179	0x3d10c358	0.035342544
180	0x3ca9f47c	0.020746462
181	0x3d6b8fda	0.057510234
182	0xbd076802	-0.033058174
183	0xbda127bb	-0.07868906
184	0xbda41689	-0.08012111
185	0x3d3dac76	0.04630705
186	0xbc2b5d00	-0.010459185
187	0xbd2062b5	-0.039156634
188	0xbd622a96	-0.055216394
189	0xbd3e7eab	-0.04650752
190	0x3d2d43f2	0.042301126
191	0xbd23cb25	-0.039988656
192	0x3d6d73c6	0.05797174
193	0xbc44f068	-0.012020208
194	0xbd011188	-0.03151086
195	0x3d134b40	0.035960436
196	0xbd654b14	-0.055979803
197	0xbd82e104	-0.063905746
198	0x3c4ffff0	0.012695298
199	0xbd9b65f6	-0.07587807
200	0x3d84eabd	0.06490085
201	0xbd8321b8	-0.06402916
202	0xbd800e56	-0.06252734
203	0xbd385b52	-0.045008965
204	0x3cde9958	0.02717273
205	0x3acad500	0.0015474856
206	0x3c71dca8	0.014762081
207	0x3d330256	0.0437034
208	0xbd2c1792	-0.042014666
209	0x3da88717	0.08228891
210	0xbd6b0896	-0.057381235
211	0xbd5fbceb	-0.054623526
212	0x3d1751f2	0.036943384
213	0xbaf80c40	-0.0018924549
214	0x3b3260c0	0.0027218312
215	0xbd487498	-0.048939317
216	0x3d9e1237	0.07718318
217	0xbd0976af	-0.03356045
218	0xbcfe002c	-0.031005941
219	0x3d89be35	0.06725732
220	0xbc09f488	-0.008420117
221	0x3cdfadf8	0.027304634
222	0xbc8865d0	-0.01665011
223	0xbd913bfe	-0.07091521
224	0x3dad806b	0.084717594
225	0xbc8cb8c0	-0.01717794
226	0x3d940b89	0.07228763
227	0x3d52902a	0.051407017
228	0x3d5070de	0.05088889
229	0xbd757a15	-0.05993088
230	0xbc8360ec	-0.016037427
231	0xbd87c375	-0.06629077
232	0xbd8841cf	-0.06653177
233	0xbdb34f16	-0.08755319
234	0xbd9741ff	-0.07385635
235	0xbd38b194	-0.045091227
236	0xbcee62fc	-0.029099934
237	0x3c159e98	0.00913205
238	0x3da25fc7	0.07928424
239	0xbc8a7820	-0.016902983
240	0xbd84aeef	-0.064786784
241	0xbd9d9d46	-0.07696013
242	0xbd89244e	-0.06696378
243	0xbd71e817	-0.05905923
244	0x3d9a3627	0.0752986
245	0xbd187f90	-0.037231028
246	0xbd36b62a	-0.04460732
247	0xbd865c0b	-0.065605246
248	0x3ced53a8	0.028970554
249	0xbcbfd4ac	-0.02341684
250	0x3b8963e0	0.004192814
251	0x3da8f897	0.0825054
252	0xbcd49da8	-0.025954083
253	0xbd08590e	-0.033288054
254	0x3d65dde2	0.056119807
255	0x3d0ed45e	0.034870498

common.2.bias f4 [64]
0	0x3bbe5d30	0.0058094487
1	0x36408000	2.8684735e-06
2	0xbc19b020	-0.00938037
3	0x3d911d2f	0.070856445
4	0x3d7013f6	0.058612786
5	0xbd92a430	-0.071602225
6	0xbd5026e7	-0.05081835
7	0x3d0534ca	0.032521047
8	0xbd4e97bb	-0.05043767
9	0xbc41ec10	-0.011836067
10	0x3c0cb300	0.008587599
11	0x3c463fa0	0.01210013
12	0xbb5a8420	-0.0033342913
13	0xbd3c406b	-0.04595987
14	0xbda2f5e4	-0.07957056
15	0x3d8b230f	0.06793796
16	0xbd9171db	-0.07101794
17	0xbc9e26b8	-0.019305572
18	0xbd6cd074	-0.057815984
19	0xba07f680	-0.00051865727
20	0xbba407e0	-0.0050058216
21	0x3d7cbd72	0.061704107
22	0xbcf0d142	-0.029396657
23	0x3db4fd73	0.08837404
24	0x3ce37ac0	0.027768493
25	0x3c25f6a8	0.010129608
26	0x3d8d39b7	0.06895774
27	0xbd8067c8	-0.06269795
28	0xbcbe2c70	-0.023214549
29	0xbcbf4160	-0.023346603
30	0x3d82daf3	0.063894175
31	0x3caf4ff4	0.02140043
32	0xbd9c95a1	-0.07645727
33	0xbda2d3b8	-0.079505384
34	0xbd0c65c9	-0.034276757
35	0xbdad7173	-0.08468904
36	0x3b8a2410	0.0042157248
37	0x3d6336aa	0.055472054
38	0xbd3aa444	-0.045566812
39	0x3ce1a634	0.027545072
40	0xbd82c84c	-0.0638586
41	0xbc927234	-0.017876722
42	0x3d35c3c6	0.044376157
43	0x3c10a048	0.0088272765
44	0xbd4abd95	-0.049497206
45	0xbab78880	-0.0014002472
46	0x3d5c1296	0.053728662
47	0xbd34b703	-0.044119846
48	0xbcf26b06	-0.029592048
49	0x3992ab00	0.00027974695
50	0xbb641200	-0.0034800768
51	0x3d310e4a	0.043226518
52	0xbc7cd690	-0.015432015
53	0xbd92fc88	-0.07177073
54	0xbd75149c	-0.059834108
55	0x3d89375b	0.06700011
56	0xbb68a800	-0.0035500526
57	0xbcb1f170	-0.021721572
58	0xbd6630aa	-0.056198753
59	0x3d8381a3	0.064212106
60	0xbd509e78	-0.050932378
61	0xbd71edbc	-0.05906461
62	0x3d87b1f3	0.06625738
63	0x3d35527a	0.04426811

head0.weight f4 [4, 64]
0	0x3dca706a	0.098847225
1	0x3d702c80	0.05863619
2	0x3de1c786	0.11024384
3	0x3caa3058	0.020775005
4	0xbdfb6bfa	-0.12276454
5	0x3de02ab2	0.109456435
6	0x3bf9f880	0.0076285005
7	0x3cac7508	0.021051899
8	0xbdf9275a	-0.12165709
9	0xbdd8fcd6	-0.105951
10	0xbd3f8ffc	-0.046768174
11	0x3d94a690	0.07258332
12	0x3d5e4d28	0.0542728
13	0xbcb4b560	-0.022059143
14	0xbdfe57fc	-0.124191254
15	0x3b08e2c0	0.0020887107
16	0xbd619fc8	-0.05508402
17	0x3dd6d094	0.10489002
18	0xbdd252fc	-0.10269734
19	0x3dedb962	0.116076246
20	0x3dea4f24	0.11440876
21	0x3d22d4f4	0.03975387
22	0xbaaf2900	-0.0013363659
23	0x3d6539d4	0.055963352
24	0x3deb8bce	0.11501275
25	0x3d0ae548	0.033910066
26	0x3b73adc0	0.003718242
27	0x3dd0539c	0.10172197
28	0xbd442178	-0.04788348
29	0x3dd84e20	0.10561776
30	0x3d4ca208	0.049959213
31	0x3d93e220	0.07220864
32	0x3cc31ae8	0.02381654
33	0x3da61db2	0.08111133
34	0x3dcba3a2	0.0994332
35	0xbcf87808	-0.030330673
36	0x3decaed0	0.1155678
37	0x3de38d6a	0.11110957
38	0x3d29e894	0.04148157
39	0x3d280b0c	0.04102616
40	0xbc9079c0	-0.01763618
41	0x3c9d90f0	0.01923415
42	0x3de82bd6	0.11336486
43	0xbdd3397a	-0.10313697
44	0xbd2b86d4	-0.04187663
45	0x3d4d1134	0.050065234
46	0xbdb8bf78	-0.09020895
47	0x3ceed370	0.029153556
48	0xbded0558	-0.11573285
49	0x3b78ecc0	0.003798291
50	0xbd801da6	-0.06255655
51	0x3b9a37c0	0.004706353
52	0x3c8fb670	0.017543048
53	0xbdd579c8	-0.104236186
54	0x3df636c8	0.120221674
55	0x3df64574	0.12024966
56	0xbceb7ea8	-0.028746918
57	0x3db5e204	0.08881
58	0x3dfe0d80	0.12404919
59	0xbb5645c0	-0.0032695383
60	0xbc6a3e60	-0.014297098
61	0xbd9d9f04	-0.076963454
62	0xbd329b28	-0.043605
63	0x3dfb299a	0.12263794
64	0xbd90ea82	-0.07075979
65	0xbdb7e684	-0.08979514
66	0x3d93f69c	0.072247714
67	0x3de1e356	0.11029689
68	0x3d15058c	0.036382243
69	0xbd5bd71c	-0.05367194
70	0x3de1d718	0.11027354
71	0xbb230700	-0.0024875998
72	0x3dfc4170	0.12317169
73	0x3d01788c	0.031609103
74	0x3d54f344	0.05198981
75	0xbdd034ae	-0.10166298
76	0xbd8cbcc4	-0.06871942
77	0x3dc60418	0.096687496
78	0xbd87358e	-0.066020116
79	0x3d660814	0.056160048
80	0x3dd1e460	0.10248637
81	0xbc994e78	-0.018714175
82	0xbcd81ac0	-0.026379943
83	0xbdd272c2	-0.102757946
84	0x3de9aaa8	0.11409503
85	0x3ce329b8	0.027729854
86	0xbdc02b94	-0.09383312
87	0xbcc6dd60	-0.024275482
88	0x3d86c0d0	0.06579745
89	0xbc867f18	-0.016418025
90	0xbdeda5c2	-0.116038814
91	0x3d9fc956	0.07802074
92	0x3dfdb332	0.123876944
93	0xbdfcbe18	-0.12340945
94	0xbd83d9b4	-0.06438008
95	0x3d9054a2	0.070473924
96	0x3d957f82	0.07299711
97	0x3d38b988	0.04509881
98	0x3dce6a18	0.100788295
99	0x3dd30082	0.10302831
100	0x3d079af8	0.033106774
101	0x3c9f16b0	0.019419998
102	0x3ddd02b2	0.1079153
103	0xbd53fb08	-0.051753074
104	0xbd402054	-0.04690583
105	0x3de71ff4	0.112853914
106	0x3c5fdd70	0.013663635
107	0x3d5fc960	0.054635406
108	0xbcfa09d8	-0.030522272
109	0x3d4b1328	0.049578816
110	0xbdc6571c	-0.096845835
111	0xbccfe1b0	-0.02537617
112	0xbdebc19e	-0.11511539
113	0x3d7d746c	0.061878607
114	0x3de2a2f0	0.11066234
115	0x3d5d6030	0.05404681
116	0xbd806f74	-0.06271258
117	0x3c545310	0.012959257
118	0x3db80d02	0.08986856
119	0xbd6d2a20	-0.0579015
120	0x3db3f444	0.08786824
121	0x3b8e2880	0.004338324
122	0xbdb20c16	-0.086937115
123	0x3d0d0530	0.034428775
124	0x3ced2e50	0.028952748
125	0x3dfa3b44	0.12218335
126	0x3d9ccffa	0.07656856
127	0x3da7dd20	0.08196473
128	0xbdf5b918	-0.119981945
129	0xbc0fe5d0	-0.008782819
130	0x3cd55370	0.026040763
131	0xbdea9c5a	-0.11455603
132	0x3dd985a2	0.106211916
133	0xbb9867c0	-0.00465104
134	0x3d0de36c	0.034640715
135	0xbde53344	-0.11191419
136	0xbcb42818	-0.021991774
137	0xbdb483fe	-0.08814238
138	0xbc67a460	-0.014138311
139	0x3db85ac0	0.09001684
140	0x3de35b14	0.11101356
141	0xbdca0434	-0.09864083
142	0x3dc1c1f4	0.09460822
143	0x3da8f878	0.08250517
144	0xbde28510	-0.11060536
145	0x3dafed26	0.08590154
146	0x3dfda084	0.123841316
147	0xbcfd7718	-0.030940577
148	0xbdcdc9cc	-0.10048255
149	0xbd43eb74	-0.047831967
150	0xbdcdd8d2	-0.10051121
151	0x3dffff58	0.12499875
152	0x3dcbf2e0	0.09958434
153	0xbdc3a0a0	-0.09552121
154	0x3d4263ac	0.047458336
155	0x3c6f86f0	0.014619574
156	0xbcdb5098	-0.026771829
157	0x3da5f766	0.08103828
158	0x3db22312	0.086980954
159	0x3d4e60c0	0.050385237
160	0xbdc038a8	-0.09385806
161	0xbce3e200	-0.027817726
162	0xbd90b178	-0.070650995
163	0x3c3953d0	0.011311486
164	0xbc6b20b0	-0.014351055
165	0xbb96d580	-0.004603088
166	0xbdebad5a	-0.115076736
167	0xbb82fbc0	-0.003997296
168	0xbd9aba1a	-0.07555027
169	0x3d22f388	0.03978303
170	0xbd66a5c0	-0.056310415
171	0x3d383a14	0.044977263
172	0xbcfb5a28	-0.030682638
173	0xbd72ec94	-0.05930765
174	0xbccefe10	-0.02526763
175	0xbd69e390	-0.057101786
176	0xbd3b3ae0	-0.045710444
177	0xbd12a458	-0.03580126
178	0xbdafa930	-0.08577192
179	0xbd336d4c	-0.043805405
180	0xbd2cfc3c	-0.042232737
181	0x3dc3a0ba	0.095521405
182	0x3d9ee15e	0.07757829
183	0x3dbeb5b4	0.09312001
184	0xbd8d421c	-0.06897375
185	0xbd15b0f0	-0.036545694
186	0x3dfbbf5e	0.1229236
187	0xbdf5326c	-0.11972508
188	0x3cdf9cb0	0.027296394
189	0x3d932d58	0.07186383
190	0x3d9eec0c	0.07759866
191	0x3d85c26a	0.06531222
192	0xbd1efb8c	-0.038814113
193	0x3d4a9f2c	0.049468204
194	0xbd643008	-0.05570987
195	0xbd97ccda	-0.07412119
196	0xbd9f9b04	-0.07793239
197	0x3da7a354	0.08185449
198	0xbd86a07a	-0.06573577
199	0x3ccb3e68	0.024810031
200	0x395a9000	0.00020843744
201	0x3bbd79a0	0.005782321
202	0xbdda82bc	-0.10669467
203	0xbdf01f98	-0.11724776
204	0x3dd737de	0.10508703
205	0x3dc4c27a	0.09607406
206	0x3d3af358	0.045642227
207	0xbb698700	-0.0035633445
208	0xbc9a26e0	-0.018817365
209	0xbda3fa22	-0.080066934
210	0xbd0d5940	-0.034508944
211	0xbd84ca96	-0.06483953
212	0xbd9d9ed6	-0.07696311
213	0x3d5e336c	0.05424826
214	0x3dc6ed4c	0.097132295
215	0xbd279c18	-0.040920347
216	0x3993cc00	0.00028190017
217	0xbdb54196	-0.088504
218	0x3dc8bfee	0.09802233
219	0xbdd661ec	-0.10467896
220	0x3d2fba08	0.042902023
221	0xbda5265a	-0.080639556
222	0x3da67f08	0.08129698
223	0xbd024ff4	-0.03181453
224	0xbda81e56	-0.08208911
225	0xbd38a8c8	-0.045082837
226	0xbdac0b8c	-0.0840064
227	0x3d186a14	0.03721054
228	0x3d786dd0	0.0606516
229	0xbd252a44	-0.04032351
230	0xbdb87ae4	-0.090078145
231	0xbd88f464	-0.06687239
232	0x3d07e1c8	0.033174306
233	0x3dd75ebe	0.105161175
234	0x3df919e4	0.12163141
235	0x3d77f1a4	0.06053318
236	0x3ccabbc0	0.02474773
237	0x3d4270d8	0.047470897
238	0xbb94acc0	-0.004537195
239	0xbd7c706c	-0.06163065
240	0xbde7eaee	-0.11324106
241	0x3dd565dc	0.10419819
242	0x3d8e4258	0.06946248
243	0xbc3d0810	-0.011537567
244	0x3d16ff40	0.03686452
245	0x3cd6b528	0.026209429
246	0x3dc33154	0.09530893
247	0xbd4bb440	-0.049732447
248	0xbd3075ec	-0.04308121
249	0x3d17f454	0.037098244
250	0x3bd8c6c0	0.0066154897
251	0xbbc47400	-0.0059952736
252	0xbd9b9f78	-0.075987756
253	0xbde6af66	-0.11263923
254	0x3ddf99fe	0.109180436
255	0xbd036538	-0.03207895

head0.bias f4 [4]
0	0x3d49ef58	0.04930052
1	0x3dc8003e	0.09765671
2	0xbdb63bd6	-0.088981315
3	0xbceeffb0	-0.029174656

head1.weight f4 [4, 64]
0	0xbd2bbf28	-0.041930348
1	0x3a00a700	0.00049076974
2	0xbcde9d70	-0.027174681
3	0xbd533f7c	-0.051574215
4	0xbdb1b02c	-0.0867618
5	0x3d3f90b4	0.04676886
6	0xbdeb663e	-0.114941105
7	0xbd824d82	-0.0636244
8	0x3de42bd0	0.11141169
9	0x3de46494	0.11151996
10	0x3dc887de	0.097915396
11	0xbd9deeec	-0.07711586
12	0x3d86eb1e	0.06587814
13	0xbcb95cb8	-0.02262722
14	0xbd878406	-0.06616978
15	0x3d54bc28	0.051937252
16	0xbd5dca24	-0.054147854
17	0x3dc6dc7c	0.09710023
18	0x3df81cc2	0.1211486
19	0x3d9f31b2	0.077731505
20	0xbd7b771c	-0.06139289
21	0x3d2b055c	0.041753158
22	0xbc9296d8	-0.017894194
23	0x3d9bd4f6	0.076089785
24	0xbd6732d8	-0.056444973
25	0x3c722680	0.014779687
26	0xbde06966	-0.10957603
27	0xbc2b9210	-0.010471836
28	0xbc332940	-0.010935128
29	0x3dd4156a	0.10355647
30	0x3dc784d8	0.09742135
31	0x3deb8a12	0.11500944
32	0xbcbe2840	-0.023212552
33	0xbdf110b4	-0.11770764
34	0xbd297858	-0.041374534
35	0x3db9c5d2	0.09070934
36	0xbd8c8ae4	-0.06862429
37	0x3b63c3c0	0.0034754127
38	0x3debd546	0.11515288
39	0xbdbcdb7c	-0.09221551
40	0xbc678fb0	-0.014133379
41	0x3d2682b0	0.040651977
42	0x3de5b9a4	0.11217049
43	0xbdef2250	-0.116764665
44	0xbd8ad6fc	-0.06779286
45	0x3d63d948	0.055627137
46	0xbd63870c	-0.055548713
47	0x3d2cde80	0.04220438
48	0x3dc1f142	0.094698444
49	0x3dd27a42	0.10277225
50	0x3deb01dc	0.11474964
51	0x3ddb6fcc	0.10714683
52	0x3de3f186	0.11130051
53	0x3de9f936	0.11424486
54	0x3d83f3d8	0.06442994
55	0x3dda3d22	0.106561914
56	0xbc986900	-0.018604755
57	0xbc908140	-0.017639756
58	0x3ddccc82	0.10781194
59	0xbdf16574	-0.11786929
60	0x3d950006	0.07275395
61	0xbd1d2928	-0.038369328
62	0xbdf089f8	-0.117450655
63	0xbd838e92	-0.064236775
64	0xbc355970	-0.011068687
65	0x3d4f3258	0.05058512
66	0x3ce57ce0	0.028013647
67	0xbddb8ef0	-0.107206225
68	0x3d7f67a4	0.0623547
69	0x3d215344	0.03938605
70	0xbc7b5b70	-0.015341625
71	0x3c126860	0.008936018
72	0x3d917056	0.071015045
73	0x3d2c6d00	0.042096138
74	0xbdf1dae6	-0.1180933
75	0xbdfe4470	-0.12415397
76	0x3da8253c	0.08210227
77	0x3db9afa4	0.09066704
78	0xbcd0d048	-0.025489941
79	0x3d8caaa4	0.068684846
80	0x3d649cd0	0.05581361
81	0x3d93a7b6	0.07209723
82	0x3db87a88	0.09007746
83	0x3d43f274	0.047838643
84	0xbdec5a58	-0.11540669
85	0x3ddfbb36	0.109243795
86	0xbab0a980	-0.0013478249
87	0x3c8c3448	0.017114773
88	0xbdb9e8b8	-0.09077591
89	0x3dc0e6a4	0.09418991
90	0x3dfb31ac	0.122653335
91	0x3d578be4	0.052623644
92	0x3d0b27ec	0.03397362
93	0x3d8df652	0.069317475
94	0x3cf7c880	0.030246973
95	0x3dd2b682	0.10288717
96	0xbd180568	-0.03711453
97	0x3dd6b2d2	0.10483326
98	0x3d697738	0.05699846
99	0x3dcddcd0	0.10051882
100	0x3ddbfebe	0.107419476
101	0xbd7ea2c8	-0.06216696
102	0x3da9a1c6	0.08282809
103	0xbce0ac48	-0.0274259
104	0xbd68b1b4	-0.056810096
105	0x3dfe2eb6	0.12411253
106	0xbd6602c0	-0.056154966
107	0xbdcc70f6	-0.09982483
108	0x3da524f4	0.08063689
109	0xbc2c57a0	-0.010518938
110	0x3dedf9a8	0.11619884
111	0xbdcb2efe	-0.099210724
112	0xbbe6f4e0	-0.0070482343
113	0x3be8a1c0	0.00709936
114	0x3d38b2fc	0.045092568
115	0x3cd4fe00	0.026000023
116	0x3dc569e8	0.09639341
117	0xbd9667ca	-0.07344015
118	0x3d8c9650	0.06864607
119	0x3d3f926c	0.0467705
120	0x3da67d62	0.081293836
121	0xbd951f94	-0.07281414
122	0x3da36204	0.07977679
123	0xbceeb218	-0.029137656
124	0xbd2530c4	-0.04032971
125	0x3bfc44c0	0.0076986253
126	0x3d1f6a68	0.038919836
127	0x3dc4188e	0.09574996
128	0xbd32ad14	-0.04362209
129	0x3d6888f4	0.056771234
130	0x3d3d6244	0.04623629
131	0xba9a2280	-0.0011759549
132	0xbbf0db20	-0.0073503405
133	0x3da8ec04	0.082481414
134	0x3dd671e0	0.10470939
135	0xbdc7833a	-0.09741826
136	0xbd530350	-0.05151683
137	0xbdd9f3be	-0.10642193
138	0x3d2121d8	0.039338917
139	0xbdc4c984	-0.096087486
140	0xbd32abac	-0.04362075
141	0xbdbf89cc	-0.093524545
142	0x3dd126b6	0.10212462
143	0x3ddae024	0.10687283
144	0xbd575e18	-0.05257997
145	0xbccd0d78	-0.025030836
146	0x3d8a1f40	0.06744242
147	0xbdbdcbac	-0.09267363
148	0xbca47848	-0.020076886
149	0x3db49382	0.088171974
150	0xbd037694	-0.032095507
151	0x3d1d46b4	0.038397506
152	0x3df13ce0	0.11779189
153	0xbd58ebb8	-0.052959174
154	0x3d89fadc	0.06737301
155	0x3d5d4650	0.054022133
156	0x3d9a02f2	0.07520093
157	0x3dc3b244	0.09555486
158	0x3d81826a	0.06323703
159	0xbd18b59c	-0.03728257
160	0x3de104bc	0.10987231
161	0x3d443738	0.047904223
162	0x3d7ab348	0.061206132
163	0x3da0b6a8	0.07847339
164	0x3c8e4178	0.017365202
165	0xbc848140	-0.016174912
166	0x3da29a46	0.079395816
167	0x3d8524c8	0.06501156
168	0xbd7f7d14	-0.062375143
169	0x3d61fe78	0.05517432
170	0x3d907d48	0.070551455
171	0x3c80e0d8	0.015732214
172	0x3d42991c	0.047509298
173	0x3dc9fe8a	0.098630026
174	0xbdd62498	-0.104561985
175	0x3debcb40	0.11513376
176	0xbd80b13a	-0.06283803
177	0x3d106ec0	0.03526187
178	0x3cece948	0.02891983
179	0x3d293458	0.041309685
180	0x3de85e34	0.11346093
181	0x3bf6ebc0	0.007535428
182	0xbcd2f918	-0.025753543
183	0xbd238180	-0.039918423
184	0xbd8a2f94	-0.06747356
185	0x3def1d80	0.116755486
186	0x3c1e6360	0.0096672475
187	0x3c4d2ca0	0.012522846
188	0xbd61808c	-0.055054232
189	0xbdd92cba	-0.10604234
190	0x3de86656	0.11347644
191	0xbd74f844	-0.059807077
192	0xbd25c508	-0.040471107
193	0x3d253948	0.04033783
194	0xbcde8140	-0.02716124
195	0xbdfa5412	-0.122230664
196	0x3d823df6	0.06359474
197	0xbdf9521c	-0.12173864
198	0x3d5927fc	0.053016648
199	0xbc52bdf0	-0.012862667
200	0xbd262bc4	-0.040569082
201	0x3d4e3a18	0.05034837
202	0x3cdee868	0.02721043
203	0xbd449f50	-0.048003495
204	0x3dd9cb28	0.10634452
205	0xbd4ccff8	-0.050003022
206	0xbdca2c9e	-0.09871791
207	0xbd947806	-0.07249455
208	0x3d832842	0.06404163
209	0xbdc81eb2	-0.0977148
210	0x3d9a494e	0.07533513
211	0xbc845ad0	-0.016156584
212	0xbd52bd1c	-0.05144988
213	0xbcb27060	-0.0217821
214	0xbdf3b826	-0.11900358
215	0xbda4196e	-0.08012663
216	0xbdbfd8e6	-0.09367542
217	0xbd95d0b6	-0.07315199
218	0xbce00cf0	-0.02734992
219	0xbd853234	-0.06503716
220	0x3d1952a4	0.037432328
221	0x3d4d9d20	0.050198674
222	0x3d96f99a	0.073718265
223	0x3d46402c	0.048401043
224	0x3d8bf4a2	0.068337694
225	0xbdb43ec4	-0.08801034
226	0xbd819eee	-0.063291416
227	0x3d973ace	0.07384263
228	0x3d9fe850	0.07807982
229	0xbc1d7790	-0.009611025
230	0xbd95cd56	-0.07314555
231	0xbd866718	-0.06562632
232	0xbdfdc598	-0.12391204
233	0x3c9be9b0	0.01903233
234	0x3dd745ba	0.10511346
235	0x3dc1f7f0	0.094711185
236	0xbdb4bdd6	-0.08825271
237	0xbdfed642	-0.1244321
238	0xbda9614c	-0.08270511
239	0xbc576190	-0.013145819
240	0xbd29b34c	-0.041430756
241	0xbdefa78c	-0.11701879
242	0xbdaaaa08	-0.08333212
243	0x3dcefbf6	0.101066515
244	0x3cfb25a0	0.03065759
245	0xbd7feb9c	-0.062480554
246	0xbd5e68a4	-0.05429901
247	0x3d44d7c0	0.048057318
248	0x3da78d0e	0.08181201
249	0xbd9ed274	-0.077549845
250	0xbd232578	-0.039830655
251	0x3d3b5318	0.04573354
252	0xbde82276	-0.11334698
253	0x3b860f80	0.004091203
254	0xbd6e73a8	-0.058215767
255	0xbcb50838	-0.022098646

head1.bias f4 [4]
0	0xbdfa7954	-0.12230173
1	0x3dd4a97a	0.103838876
2	0xbd92923a	-0.07156797
3	0xbdb5b30e	-0.088720426
