modello.pth (torch, 55309 bytes, 8 tensors)

common.0.weight f4 [128, 32]
00000000: 754f 13be 00a2 5b3a 987d 90bd e228 b33d
00000010: 3aa8 ea3d c82a 953d a88e 9dbc 4aae c43d
00000020: 9e79 c43d efb5 08be 40b5 71bb 6aef ee3d
00000030: 1e7a b93d 411f 023e f04f f3bc f9e3 d5bd
00000040: 6fbc 8bbd b0fb 313d 0f5b c4bd 367e 30be
00000050: 207b eebd 57d5 163e bbb5 003e 8085 f2ba
00000060: 80e9 d9bd 1e12 f9bd c002 483b 1d78 333e
00000070: 19ad 243e 9fef 80bd 300e 53bc a76a 073e
00000080: d7f5 afbd 3cc6 183d 4827 1cbe 0698 ff3d
00000090: 3cee e6bd 4c00 f9bd ad20 0f3e d461 05be
000000a0: d691 9c3d b0cc c9bc f848 7f3d 8c55 0dbd
000000b0: cc93 0cbd 8b26 c5bd dc0e d7bd 903e 6d3c
000000c0: 7e0f 0fbe 60ea a83b a8a0 dbbc f8a5 94bc
000000d0: 6192 c4bd c6ce fe3d 3cac 893d 9dd3 1a3e
000000e0: 4e15 823d c600 0bbe 9041 febc 306e a8bc
000000f0: 667e be3d e303 2fbe cade e03d 5e45 f1bd
00000100: abe7 2dbe c028 983c 1b54 c1bd d85e bb3c
00000110: 01d9 013e b374 213e 3451 0fbe e402 12be
00000120: d504 ebbd 9b8a 28be c769 153e ec57 14bd
00000130: 40b8 26bd e4b3 673d 6f97 e3bd 0c58 03bd
00000140: 4c52 1b3d 974b e2bd fc0d 36bd 1334 203e
00000150: 5893 0b3d ed55 00be a4c9 113d 2e6a 31be
00000160: b94e a6bd b8db d8bc 4085 2ebe 4ede 29be
00000170: 5874 18be f8de f0bc 32dd ab3d dec5 ec3d
00000180: d046 aabd 0acb 9e3d e240 a03d 8394 233e
00000190: 1884 4e3d 0409 b5bd d689 a33d 10f7 21bd
000001a0: 4af2 dcbd 15c8 143e 8004 9a3b 6719 02be
000001b0: 2aa0 1ebe 400a 483c a739 cabd 5627 f93d
000001c0: 7c75 0fbe 3428 4d3d 2406 943d eed7 8a3d
000001d0: 5928 223e 348e 18be ca5e e43d 14c5 423d
000001e0: c8bf fe3c e015 aa3b e095 c23c d009 25bc
000001f0: abde b8bd 6ebd d93d 36ca fc3d 54d4 563d
00000200: a6a8 f3bd 1414 0b3d e000 4bbc 4c95 08bd
00000210: 4e0f 6dbd e08d 763c 5e98 17be 58b1 0fbe
00000220: b984 cdbd 4624 05be f263 93bd 4616 d83d
00000230: 2871 db3c c15a acbd 94c2 32bd 8a8a d43d
00000240: 144f 843d ab7d d2bd 0433 3f3d 1fad 213e
00000250: 500d 13bc 06a6 ab3d c07b ef3c d74b c5bd
00000260: 4ef0 8f3d dfa6 0bbe 450a 1d3e 3b77 2a3e
00000270: 5c4a 1bbe 38d3 053d 2336 06be 142c 53bd
00000280: 9148 183e 0e97 e53d 5c48 3ebd 40df f2bb
00000290: 4695 c13d 1ad7 fb3d d510 2d3e e4ab 7d3d
000002a0: abee 103e f0d1 81bc db76 1d3e c4d3 563d
000002b0: a080 693c 5534 b8bd 3e36 34be 1904 ecbd
000002c0: f36b 0f3e 355f 103e 765f 13be 76e2 08be
000002d0: 50a3 edbc 2345 093e b2fb 9cbd 00e9 8cbc
000002e0: afa3 08be 62f6 cabd 6d0b 203e 78d8 5f3d
000002f0: c229 c43d d717 28be 2057 10bc 0e8d 9b3d
00000300: 78e0 7b3d efae 013e 6a34 d33d 7d4e 023e
00000310: 48bd e73c a01a 78bc 7067 283c b0eb aa3c
00000320: 707c fbbc c76e a5bd 9b92 29be 9f9e 143e
00000330: cce2 2b3d 9dc4 c5bd 20b1 013c d8ee 2cbd
00000340: 2885 9a3c a4aa 513d 3eba 0fbe c454 ddbd
00000350: a012 08bd 0c0c 32be 052f 81bd ffee 063e
00000360: cd1e c6bd 25e9 ddbd f6f3 9f3d d78a 013e
00000370: 1d05 213e 5023 66bc 9c8c 52bd 34e0 22bd
00000380: 14a7 5b3d 4d1c 2e3e 6458 b0bd 6b48 1d3e
00000390: e643 cb3d 4b54 153e 9534 18be 40e5 5abc
000003a0: f401 e6bd 107c 78bc 5084 3ebc 6160 1f3e
000003b0: b21f 0abe f080 34be e251 9e3d 7f4d 253e
000003c0: 4fdb 20be 9693 24be 363f 06be 5567 8abd
000003d0: 943d 4f3d 4cfd c2bd 9fda 0a3e 90ed d1bc
000003e0: cda8 243e 921b b4bd 9e62 bf3d 0000 4ebd
000003f0: 403b dabb 85f4 143e f6f1 df3d 38a1 b1bd
-0.14385779 0.0008378327 -0.07055205 0.08748032 0.11457868 0.072835505 -0.019233063 0.096035555
0.09593509 -0.13350652 -0.0036881715 0.11666758 0.09056495 0.12707235 -0.029701203 -0.10443873
-0.0682305 0.04345292 -0.095876805 -0.17235646 -0.11644578 0.1472982 0.12569325 -0.0018502921
-0.1064024 -0.12161659 0.0030519217 0.17526288 0.16081657 -0.06295704 -0.0128818005 0.13224278
-0.08591812 0.037298426 -0.1524936 0.12480168 -0.11275908 -0.1215826 0.13977309 -0.130256
0.076450035 -0.024633735 0.062325448 -0.034505412 -0.034320638 -0.09626492 -0.10500881 0.014480248
-0.13970754 0.005154893 -0.026810005 -0.018145546 -0.09598232 0.12441783 0.06722304 0.15119787
0.0635172 -0.13574514 -0.031037122 -0.020560354 0.09301452 -0.17091326 0.10979994 -0.11780809
-0.16982906 0.018574119 -0.0943987 0.022872373 0.12680437 0.15767173 -0.1399582 -0.14258915
-0.11475531 -0.16459124 0.14591132 -0.03621666 -0.04070306 0.05656804 -0.11112868 -0.03206639
0.03792028 -0.11049574 -0.04444693 0.15644865 0.034076065 -0.12532778 0.03559269 -0.1732566
-0.08120484 -0.026471958 -0.17043018 -0.16588709 -0.14888132 -0.029403195 0.08391799 0.11561178
-0.08314288 0.077535704 0.078248754 0.15974621 0.050418943 -0.0883961 0.079852745 -0.039542258
-0.107884005 0.1452945 0.0047002435 -0.12705003 -0.15490785 0.012209475 -0.098742776 0.12165706
-0.1400966 0.05008717 0.07227734 0.067794666 0.15835704 -0.14897996 0.11150892 0.04755123
0.031097308 0.005190596 0.023753107 -0.01007314 -0.090268455 0.10631834 0.12343256 0.052448586
-0.118974015 0.033954695 -0.012390345 -0.033345506 -0.057875924 0.015048474 -0.14804217 -0.14032495
-0.100350805 -0.13002118 -0.071967974 0.10551123 0.026787356 -0.084157474 -0.043642595 0.10377987
0.064603955 -0.102778755 0.04667951 0.15788697 -0.008975342 0.08381276 0.029233813 -0.09633606
0.07028256 -0.13637875 0.15335949 0.16647045 -0.15165085 0.032672137 -0.13106589 -0.051555708
0.14871432 0.11210452 -0.046455726 -0.0074118674 0.094523 0.12296887 0.16900952 0.061931506
0.14153545 -0.015847176 0.15377371 0.05244805 0.014251858 -0.089943565 -0.17598817 -0.11524219
0.14006023 0.14098819 -0.14391884 -0.13367638 -0.029008538 0.1340528 -0.076651946 -0.017200947
-0.1334369 -0.09910275 0.15629359 0.0546498 0.09578277 -0.16415344 -0.008809835 0.075952634
0.061493367 0.12664388 0.103127316 0.12725253 0.028288499 -0.015143067 0.010278568 0.020864338
-0.030698985 -0.0807777 -0.16559832 0.14513634 0.041964337 -0.09656642 0.007915765 -0.042219967
0.018862322 0.051188126 -0.1403589 -0.108071834 -0.033220887 -0.17387408 -0.063077964 0.13177107
-0.096738435 -0.108354844 0.07810204 0.1265062 0.15724607 -0.014046505 -0.051403627 -0.039764598
0.053626135 0.17002983 -0.08610609 0.15359657 0.0992506 0.14582936 -0.14863808 -0.0133603215
-0.11230841 -0.015166298 -0.011628225 0.1556411 -0.13488653 -0.17627311 0.07730462 0.16142844
-0.1570866 -0.16071925 -0.1311005 -0.0675799 0.050595835 -0.09520969 0.1355996 -0.025625974
0.16080017 -0.08794321 0.093449816 -0.05029297 -0.006659895 0.14546402 0.10934822 -0.08673328

common.0.bias f4 [128]
00000000: 4226 afbd 9de2 2dbe 6035 773d 2c39 863d
00000010: 9956 003e 6855 b9bc 0862 6a3d af19 113e
00000020: 3827 f23c 1893 e33c d9f4 2d3e 904d 403d
00000030: e079 f93c 80fb 7f3c e498 24bd 60c8 563c
00000040: 28dd a4bc 529e 0cbe 7fa6 013e 2e5f cd3d
00000050: c440 773d de67 59bd 587f c9bc 933a 0fbe
00000060: 73a0 253e 7354 cfbd 1dbf 18be f818 d2bc
00000070: ad06 28be 11ab 2e3e 3095 a83c 0018 363c
00000080: 5830 f1bd ee8d 16be 0f55 e4bd 59e8 283e
00000090: 82a4 ca3d 03e0 313e bbbe a6bd 20db 923d
000000a0: 9fbb b4bd 1e70 2bbe 2068 d2bc 1d43 133e
000000b0: f09c 97bd cf2a 1d3e 607c ccbb 7efc 29be
000000c0: 2f8c 1dbe fa31 04be 4cf3 f3bd bec5 e83d
000000d0: 3e12 8f3d 66c1 ea3d 1024 e1bd cc2f 2bbd
000000e0: db90 0b3e 62d5 ce3d a115 303e 0a15 a8bd
000000f0: 88a9 8a3d e30d 323e ed4e 2c3e 141d 10bd
00000100: 551a 16be 38ac eebc 1870 afbc d88d 13bd
00000110: 7002 0cbe aa08 c63d 93f3 0e3e 0e26 f43d
00000120: f445 b6bd a8b5 903d 009c b43c 603f 12bc
00000130: 0286 e03d fec0 f23d d6c7 93bd 5089 e1bc
00000140: 844c f1bd a052 2cbe 00f8 3dbc ac9d 1a3d
00000150: 10a0 3b3c 8e52 dd3d 18a6 96bc c84b 413d
00000160: 2f33 323e 1564 233e f6f3 ffbd bf84 29be
00000170: f158 2c3e d89e 543d 005d 3c3c 0b52 31be
00000180: c3de 11be 1364 bebd 280e 9ebc 9be7 8cbd
00000190: 80f6 7e3b dee7 63bd 5c21 c7bd 1091 0abc
000001a0: df79 cdbd ebf8 003e f62a 9dbd 40eb 19bb
000001b0: a875 f6bd 4bf9 273e a5b4 003e 6bda 033e
000001c0: cec9 da3d 4af7 c93d 40dc 463c a4e1 11bd
000001d0: 2373 343e 08bc 5dbd b88f 26be 02b1 913d
000001e0: 6047 6e3c 645f 13bd 17c6 0a3e d89a d23c
000001f0: b83a cdbd bda5 cebd 875a 063e 9446 27be
-0.08552219 -0.16980977 0.060353637 0.065538734 0.12533034 -0.022623733 0.057222396 0.14169954
0.029559717 0.0277801 0.16987933 0.04694897 0.030453622 0.015623927 -0.04018487 0.013109297
-0.020124987 -0.1373227 0.1266117 0.1002792 0.0603645 -0.05307757 -0.024596855 -0.13987188
0.16174488 -0.10123529 -0.14916654 -0.025646672 -0.16408797 0.17057444 0.02057895 0.0111141205
-0.11776799 -0.1470258 -0.11149036 0.16494884 0.098946586 0.1737061 -0.08141848 0.07170701
-0.088248484 -0.16741988 -0.025684416 0.1438107 -0.0740298 0.15348361 -0.0062404126 -0.16600224
-0.15385507 -0.1290969 -0.119116396 0.11365841 0.06985901 0.11462669 -0.109932065 -0.04179363
0.13629477 0.10099293 0.17195751 -0.08207138 0.06770617 0.1738811 0.16826983 -0.03518398
-0.14658482 -0.029134855 -0.021415755 -0.036023945 -0.13672805 0.09669621 0.13960104 0.11921321
-0.08900061 0.07065898 0.022047043 -0.008926243 0.1096306 0.118532166 -0.0721585 -0.027531296
-0.11782172 -0.16828394 -0.011594772 0.037748024 0.011451736 0.10806762 -0.018389747 0.04719141
0.17402337 0.15956147 -0.12497704 -0.16554545 0.16830803 0.051909298 0.011496782 -0.17316453
-0.14245133 -0.092964314 -0.01929386 -0.06880113 0.003890425 -0.055641048 -0.0972316 -0.008457437
-0.10033011 0.12594955 -0.0767421 -0.0023486167 -0.1203416 0.16403691 0.1256891 0.12876289
0.106830224 0.0986162 0.012137473 -0.03561558 0.17622046 -0.0541344 -0.16265762 0.0711384
0.014543384 -0.035979643 0.13552128 0.0257086 -0.10020965 -0.10090206 0.13120471 -0.16335517

common.2.weight f4 [64, 128]
00000000: 90a3 ed3c 1aec 90bd 08a9 06bc d1d2 0dbd
00000010: 5d11 883d 74ca 99bc b0d5 9ebc a2db 213d
00000020: 3b9d a23d 0efd 46bd cdd4 813d 5878 40bc
00000030: b0e7 2a3c a96d 953d 7765 b4bd 43ab 31bd
00000040: a688 7ebd 80f7 023b 537b 9b3d 54ff 7dbd
00000050: e412 97bd 243d 9ebd d6c8 603d 0883 52bc
00000060: 324d 4e3d 1ce8 b53c 8ae5 1d3d a606 1c3d
00000070: 9646 94bd 3669 4b3d 0cef b6bc 201b 60bb
00000080: 97c3 a73d 9017 cd3b f048 093d 6e80 1e3d
00000090: 4259 163d 0272 763d 4bdf 78bd 44ee d43c
000000a0: 5629 2b3d fe5d 74bd 00cf cfbc c821 b93c
000000b0: 98d4 2dbd 746b 9dbc e1c8 b4bd b876 9ebd
000000c0: 2442 b13c 964b 643d ad7b a23d 08b1 e5bc
000000d0: d8a0 44bc c7ce 5ebd 03d0 50bd 9a72 8fbd
000000e0: 59af 90bd 76a1 703d e3cb 803d e5b4 893d
000000f0: 17b4 a23d ac13 5cbd 5081 c7bc 04ff 71bd
00000100: f634 1b3d b047 4b3c b4df 143d b0c7 f6bb
00000110: 904b 06bd a5e1 993d 866f 2fbd 3660 28bd
00000120: 4d7d a73d b1a7 68bd 983b 753c 1ac9 8bbd
00000130: 5c2f 14bd ae98 88bd 8ab6 5e3d d020 413c
00000140: b0a9 dd3b 1667 4b3d 00a8 cfba 68c8 2fbd
00000150: b86d 66bc 2222 2f3d 00a4 7bb9 3e54 6f3d
00000160: f08d cf3b e016 19bd 8857 f8bc 07a5 9f3d
00000170: 2039 40bb f27b 643d cca7 a6bd 6f83 863d
00000180: e0f4 d0bc f20e 453d de73 4cbd c5c6 80bd
00000190: a8bb 4bbc ccf7 cbbc 2817 033d 0695 93bd
000001a0: 58a0 12bd ab08 883d c014 fbba 50ff d2bc
000001b0: 22ff 603d 0467 133d 991f 9ebd 00ac 9cbc
000001c0: d000 9abb c851 cbbc 969c 653d ca40 353d
000001d0: e0ea 4fbc b93f ae3d f0be a8bd c2bf 4d3d
000001e0: 163a 413d 2a9d 463d de0c 98bd 404c efba
000001f0: d0f4 9f3c d38b 833d 9acd f6bc 9e98 3fbd
00000200: 6b7c 883d f5bf 8b3d c4b8 993c 5ccf d33c
00000210: 8913 04bd ccd8 a0bc 8434 edbc 1d31 b33d
00000220: 7075 65bd b3fc 98bd ccd9 d9bc a4b3 c2bc
00000230: 8570 04bd 42b2 02bd dd0f 813d 348a e93c
00000240: 6170 34bd 5e57 693d a4f2 e0bc d0ab e53c
00000250: e885 c9bc cc27 35bd 901e e7bc 525e 9bbd
00000260: 8df2 afbd 0415 ce3c e07c dabb 3351 883d
00000270: e4d8 c8bc 5cce dcbc 1aaa afbd edb8 2bbd
00000280: c190 7bbd 437e 803d 5054 23bc bc19 043d
00000290: b075 2a3c d42e e23c 107e b53c 1a8b 083d
000002a0: bfee 983d e9bd 8e3d 728a 243d cb50 873d
000002b0: 004f fcbc dec6 5cbd 4047 893c 9ece 72bd
000002c0: 7b5a 45bd 65c1 993d 9023 aabd dc79 8b3c
000002d0: 8366 3fbd 5846 5fbc 94e7 91bd 3cc2 063d
000002e0: 4af0 333d 5d8f 53bd ed79 23bd 00e2 c23b
000002f0: 80d1 9bbb c07a 3a3b b00e 6bbd ea4f 6f3d
00000300: 5844 be3c 146a 83bd 06e5 4a3d d372 8b3d
00000310: f439 ab3c 7649 4e3d 2053 6bbc d8fe e43c
00000320: e279 10bd 1929 853d 85e5 01bd 63c6 a43d
00000330: 06bf 4d3d 70b9 78bd 8ea7 6a3d 969e 103d
00000340: bc30 eebc 951c 8a3d 5a7b 673d e083 8ebb
00000350: 8861 003c 1441 90bd 006c b3bc 38a8 31bc
00000360: ce7f 23bd 7092 8abc 6845 05bc 98d8 10bc
00000370: 0065 14bb c0cc 743c f856 37bc 0af2 2bbd
00000380: 9ab7 7d3d 534c ac3d 2f16 9ebd 802d 36bc
00000390: 8e71 573d f6f3 2dbd 7a32 3c3d 50a7 883b
000003a0: e86f 043d 803b 2dbb 8462 a3bc 9339 78bd
000003b0: 702b e33b 0040 073a 32d0 2a3d 3ef7 2a3d
000003c0: d0a8 ba3c 1285 39bd dc2d 88bd 3fe3 a03d
000003d0: d1b8 883d b0ed e53b 404e ba3b 487d cbbc
000003e0: d8f9 873c 5007 a83c 7847 86bd e7f0 813d
000003f0: cbdf 5cbd bc12 99bd bd9d afbd b80c 7e3c
0.029008657 -0.07076283 -0.008219011 -0.03462488 0.06643937 -0.018773295 -0.019389004 0.0395161
0.079401456 -0.048581176 0.06339417 -0.011747442 0.010431215 0.07296307 -0.088084154 -0.04337622
-0.062142037 0.0019983947 0.075918816 -0.062011078 -0.0737665 -0.077265054 0.054879032 -0.012848623
0.050366588 0.022205405 0.038548984 0.038092278 -0.07240026 0.049660884 -0.022330783 -0.0034195855
0.08191603 0.0062589124 0.033516824 0.0386967 0.036706217 0.06016732 -0.060759824 0.02599252
0.041787468 -0.05965995 -0.02536726 0.022599116 -0.042439073 -0.019216277 -0.08827377 -0.077374876
0.021637984 0.055736147 0.079337455 -0.028038517 -0.012001239 -0.054396417 -0.050979625 -0.070042804
-0.07064695 0.05874773 0.06288888 0.06723956 0.07944506 -0.053729698 -0.024353653 -0.059081092
0.037892304 0.012407228 0.036346152 -0.007531129 -0.032786906 0.075137414 -0.042830966 -0.04110738
0.08178196 -0.056800548 0.014967822 -0.068254665 -0.036177978 -0.06669746 0.0543733 0.011787608
0.006764613 0.049658857 -0.0015842915 -0.04291573 -0.014064245 0.04275716 -0.0002399832 0.05842995
0.006334059 -0.03737533 -0.030315176 0.07795148 -0.0029330924 0.055782266 -0.081374735 0.06568038
-0.02550739 0.048109956 -0.049915187 -0.06287912 -0.012434877 -0.024898432 0.032004505 -0.07206158
-0.035797447 0.06642278 -0.0019155964 -0.025756508 0.054930814 0.035986915 -0.077208705 -0.019124985
-0.004699804 -0.02481927 0.056057535 0.04425124 -0.012690276 0.08508248 -0.082395434 0.050231703
0.047174536 0.048489727 -0.07424329 -0.0018256977 0.019525915 0.06423154 -0.030127335 -0.046776406
0.06664356 0.06823722 0.01876486 0.025855713 -0.032245193 -0.019634627 -0.028955705 0.08749602
-0.0560202 -0.074700736 -0.026593111 -0.0237673 -0.03233387 -0.03190828 0.06301854 0.028508283
-0.044052485 0.056968085 -0.02745945 0.028036028 -0.024599984 -0.044227406 -0.028212816 -0.075863495
-0.08591185 0.025156505 -0.0066677183 0.066561125 -0.024517484 -0.026953869 -0.08577366 -0.041924406
-0.061417345 0.062740825 -0.009968832 0.032251105 0.010404035 0.02761022 0.022154838 0.033335783
0.07467412 0.06969816 0.040171094 0.06607207 -0.030799389 -0.053900592 0.016757607 -0.059279077
-0.048181992 0.0750759 -0.08307564 0.01702588 -0.046728622 -0.013627611 -0.07124248 0.03290008
0.04393033 -0.051650394 -0.0399112 0.0059473515 -0.004755199 0.0028454512 -0.057387054 0.05842582
0.023225948 -0.06416717 0.04953482 0.0680901 0.020901658 0.050363027 -0.01436308 0.02795355
-0.035272487 0.065019794 -0.031713028 0.08045652 0.050231002 -0.060723722 0.0572887 0.03530749
-0.029075973 0.06743733 0.05651412 -0.004349217 0.007835753 -0.07043663 -0.021902084 -0.010843329
-0.039916806 -0.01691553 -0.0081342235 -0.0088407025 -0.0022643209 0.014941394 -0.011190169 -0.041978873
0.061942674 0.08412995 -0.07719075 -0.0111192465 0.05259853 -0.042468987 0.045946576 0.004170336
0.032333285 -0.002643317 -0.019944437 -0.060601782 0.0069326684 0.0005159378 0.041702457 0.041739695
0.022785574 -0.04529292 -0.06649372 0.07855844 0.06675876 0.00701686 0.0056855977 -0.024840012
0.016598627 0.0205113 -0.065566 0.063447766 -0.053924363 -0.074742764 -0.08575008 0.015505962

common.2.bias f4 [64]
00000000: b0f5 773c 7059 89bc 5ace 303d ca07 b4bd
00000010: b31c 94bd 222f 6e3d ea56 5b3d 6178 943d
00000020: 987e 553c 5238 abbd 9e3a 1e3d 6520 0bbd
00000030: 8c8e 74bd c3f4 34bd 299e 8fbd 479e 993d
00000040: 360f 563d ba42 233d e693 283d e122 913d
00000050: c2e9 743d ee17 f0bc e9d7 afbd 8317 8e3d
00000060: 1e13 643d 91c4 97bd 2490 6fbd f39b 9b3d
00000070: b685 17bd 16ec 5b3d d1a3 4ebd 5197 94bd
00000080: 5e33 78bd 2e22 53bd 257c 8abd 1a06 783d
00000090: 2675 6d3d 2eab 25bd f672 293d b291 663d
000000a0: b6c9 e1bc e722 af3d 06ae 073d 1ecd 643d
000000b0: 92ec afbd ac0a c3bc febc 533d 1a78 8fbd
000000c0: 8c4f da3c db0a a5bd 3785 13bd 3751 12bd
000000d0: bbc8 b4bd 4785 8a3d e899 63bd ac7d a5bd
000000e0: 1ddc a73d 8128 3dbd 1f18 b23d f817 52bc
000000f0: 8024 aabc 9c01 7bbd 8cf0 f53c 1c00 153d
0.01513426 -0.01676628 0.043165542 -0.08790548 -0.072320364 0.058150418 0.053549685 0.07249523
0.013030671 -0.083603516 0.03863012 -0.03396644 -0.059706256 -0.044178735 -0.070125885 0.07500892
0.0522606 0.039858557 0.041156672 0.07086731 0.05979324 -0.029308286 -0.085861035 0.06938078
0.055682294 -0.07410539 -0.058487073 0.07598104 -0.03699275 0.053691946 -0.050449196 -0.07255424
-0.060595863 -0.05154627 -0.0676196 0.060552694 0.05797305 -0.040446453 0.0413694 0.05629129
-0.027562004 0.08551579 0.033124946 0.055859677 -0.08590044 -0.0238088 0.05169391 -0.070053294
0.026649259 -0.08058711 -0.036015715 -0.035721984 -0.08827349 0.06763702 -0.0555667 -0.08080611
0.0819628 -0.046181206 0.08696007 -0.012823097 -0.020769358 -0.06128083 0.030021928 0.036377057

head0.weight f4 [4, 64]
00000000: d8fd d4bc b2d9 c63d 8077 4f3c 2a39 f4bd
00000010: 14c3 7e3d 2cb5 1abd dc0d 743d 5005 6a3d
00000020: 50cb 2c3c c637 81bd 0ccd d8bd 4c7b a2bd
00000030: f46b c63d f6ae eebd f00f 20bc 1a06 d73d
00000040: 3c45 743d 9070 a03c 9633 c93d 0a5e 9d3d
00000050: 1a86 ab3d 94eb c93d 6843 d7bc 5839 d3bd
00000060: 5032 ff3c 1241 a6bd eafb c5bd 38a5 c33c
00000070: 5837 d63d 9c15 79bd b416 d7bd 1074 d63d
00000080: b4d8 973d 9006 4e3c 6a04 ea3d 066b cfbd
00000090: dad4 d83d 7cf0 0ebd 2014 b13b 58cd fa3c
000000a0: 1280 eebd 00ad ddbc bcb8 b9bd e0fd 98bb
000000b0: 0828 97bc 3a56 b8bd b21a b8bd dcd6 ffbd
000000c0: 2033 f4bb 24b6 a53d 26ec babd ac22 e63d
000000d0: 40d5 abbc b8fe 123d 943f b33d 604a 5e3d
000000e0: 68e6 27bd beab ccbd 1658 e83d 3096 203c
000000f0: f05a c23c 6809 523d 5a94 a9bd 003b 1fba
00000100: 40b7 5d3b 1afb 993d c8ab c8bc 342f 58bd
00000110: 02f7 b73d 646b 5ebd e023 263d ce56 f4bd
00000120: e47e 1bbd a435 bd3d 0034 143a f454 26bd
00000130: 6049 9dbd 1297 f93d 5c63 eebd 20ea a7bb
00000140: 3cb2 a23d b480 eebd bcc5 42bd 9899 f53d
00000150: 9eb0 b8bd d8c4 afbd 90ce e8bc 704d 4c3c
00000160: 00a7 8b3d 3a0c dc3d dea9 9bbd 00be 2abb
00000170: 004f 7bbc 605a 583d cc56 773d a42c 66bd
00000180: 343f 3fbd 66ee 8f3d ec6e 103d f4a7 4a3d
00000190: 2261 9bbd cabf f73d 8078 f03b c403 0c3d
000001a0: e870 e63d 881a e03d 2a65 a0bd 00d1 6d3c
000001b0: 1086 be3c 54e9 9ebd 805d 753d 184b cfbc
000001c0: 2052 ff3c 2852 90bc 2a78 bc3d 0024 bcbd
000001d0: 7aba 9a3d fab4 c1bd 92b5 a7bd 648f 6fbd
000001e0: 72f8 85bd 70e5 9e3d 0409 183d 7081 5e3d
000001f0: d08d 583c 3e37 d4bd 74d8 243d a037 f53b
00000200: da76 823d 2c69 cfbd f427 573d c82a 4fbd
00000210: 8c0c c23d 54b8 5a3d 948d 463d 502b 14bc
00000220: 842c 603d a03a cabd 40bf a53d fee4 9abd
00000230: 308c d43d 8875 923c 786a 63bd 80ce 753d
00000240: 34f5 a23d 8e7b f93d a42c 35bd 8463 cf3d
00000250: 8036 0a3c 6c70 0f3d 60ff 00bd c85f 8b3c
00000260: 3466 463d 0060 633c 40de 70bc 5208 fb3d
00000270: f86c 723d 1ce6 30bd 10a2 d13c 0887 aebc
00000280: c843 403d 7866 783d 38d0 6abd 26c5 88bd
00000290: 2c68 22bd 205d c03d 286d eb3c 786c 3d3d
000002a0: e89b be3c a042 c8bc c8e6 153d 1029 cabd
000002b0: 8061 c73b 701e b2bd 6edb f63d 94ee d1bd
000002c0: 56d5 a33d 4026 893c d8cf b8bc 1091 dabd
000002d0: 2216 92bd a4a5 46bd 964a 80bd 6039 783d
000002e0: e494 843d 7e7b 983d e072 783c 9081 d7bc
000002f0: bc32 303d 20ed eb3d 28ec bd3d 1035 6c3c
00000300: 9c19 aebd f085 1e3d d0b7 013c 309c 6fbd
00000310: 6628 c8bd d8a9 9f3d 0637 eabd 90d3 863c
00000320: 1099 30bc b0e4 00bd 383e c6bc 98be 33bd
00000330: 48ac 203d 6420 c83d c278 a3bd 0830 b53d
00000340: 0c71 d23d 5a3a b13d 12a8 a2bd 50f1 b3bd
00000350: 9499 ec3d 086a 95bc 8c50 783d 5ae3 8cbd
00000360: 04a7 b83d 1c97 9bbd 307f eebd a0e2 df3b
00000370: dcc6 d6bd d865 bc3d ec81 3abd 8465 fc3d
00000380: 2866 a53d 7cde cabd 00e3 d4bb 6cf0 753d
00000390: f87b be3c 2cdf 3bbd 5c96 96bd 101c 1abd
000003a0: 4866 a73c 3451 a53d b268 fa3d b8e1 19bd
000003b0: d8b2 543d c41e ef3d c0ba 83bd 0a22 d3bd
000003c0: 6414 7a3d 0c5b cbbd 30c4 e1bd 00c4 63bb
000003d0: 340a 70bd 3039 3d3c c823 a83d 9ccf 6bbd
000003e0: 6083 2d3d b485 de3d 80ad 36bb acad 6d3d
000003f0: b8e5 b0bc 907b e43c c8fd f33d 9822 a43d
-0.025999948 0.09709491 0.012662768 -0.11924966 0.06219776 -0.037770435 0.05958353 0.057133973
0.01054652 -0.06309466 -0.105859846 -0.07933673 0.09688559 -0.11654465 -0.009769425 0.10499211
0.05963634 0.019584924 0.09824292 0.07683952 0.08375187 0.09859386 -0.026277259 -0.10313672
0.03115192 -0.0811788 -0.096671894 0.023882493 0.10459775 -0.060811624 -0.10502377 0.10471356
0.0741438 0.012574807 0.11426623 -0.10127835 0.10587473 -0.034897313 0.0054040104 0.030615494
-0.11645521 -0.027060032 -0.090684384 -0.004668936 -0.018451706 -0.090008214 -0.08989467 -0.12492153
-0.0074523836 0.08091381 -0.09127073 0.11237082 -0.020975709 0.03588745 0.08752361 0.05427015
-0.040991217 -0.09993695 0.11344926 0.0098014325 0.023725003 0.0512785 -0.08280249 -0.00060741603
0.003383115 0.07518597 -0.024495974 -0.05277939 0.0898266 -0.054301634 0.040561557 -0.11930619
-0.03796281 0.09238747 0.00056535006 -0.04060836 -0.07680011 0.121870175 -0.11640045 -0.0051243454
0.07944152 -0.11645642 -0.047551855 0.11992186 -0.09018062 -0.08582467 -0.02841881 0.012469634
0.06818962 0.107445195 -0.07600759 -0.002605319 -0.015338659 0.052820563 0.06038551 -0.056194916
-0.046691135 0.07027893 0.035262033 0.04947658 -0.07586886 0.12097128 0.0073385835 0.03418328
0.11252004 0.109425604 -0.078317955 0.0145151615 0.023257285 -0.077593476 0.05990362 -0.025304362
0.03116709 -0.0176173 0.09202607 -0.09186554 0.07555099 -0.09458347 -0.08188929 -0.058486357
-0.06541528 0.077586055 0.037117973 0.05432266 0.0132174045 -0.10362099 0.04024549 0.0074834377
0.063703254 -0.10127482 0.052528337 -0.05057791 0.094750494 0.053398445 0.048474863 -0.00904353
0.054729953 -0.09874463 0.08093119 -0.07563208 0.10378301 0.017878309 -0.05552146 0.060011387
0.07956925 0.12181769 -0.044232026 0.10126403 0.008435845 0.035019323 -0.031493545 0.017013445
0.048437312 0.013877869 -0.014701426 0.12257446 0.059185952 -0.0431882 0.025589973 -0.021304622
0.04693964 0.060644597 -0.05732748 -0.06678228 -0.039650127 0.09392762 0.028738573 0.046246022
0.023267701 -0.024445832 0.036597043 -0.09871113 0.006084621 -0.08697212 0.12053572 -0.10250583
0.07999675 0.016741872 -0.022560045 -0.106722 -0.07133128 -0.04849781 -0.06264226 0.060601592
0.06473711 0.07445429 0.015164107 -0.026306897 0.043017134 0.115198374 0.09273559 0.014416948
-0.08500978 0.03870195 0.0079173595 -0.05849856 -0.097733304 0.07796067 -0.11436276 0.016458303
-0.01077868 -0.031468093 -0.02419959 -0.043882936 0.0392268 0.09771803 -0.07982017 0.08847052
0.10275468 0.08653708 -0.07942213 -0.08786261 0.1155273 -0.018239036 0.06062369 -0.06879301
0.09016231 -0.07597181 -0.11645353 0.0068324357 -0.10487148 0.09199113 -0.04553406 0.1232405
0.080761254 -0.09905717 -0.006496787 0.060043737 0.023252472 -0.04586713 -0.073528975 -0.03762442
0.020434514 0.08072129 0.12227 -0.037568778 0.05192837 0.1167579 -0.06432104 -0.10309227
0.061054602 -0.09929475 -0.11023748 -0.0034754276 -0.05860348 0.011549279 0.0820995 -0.05757104
0.042361617 0.108653456 -0.002787441 0.058026955 -0.021593913 0.02789095 0.11913639 0.08014411

head0.bias f4 [4]
00000000: 342b 233d 8a77 b53d a2f2 933d 3a41 fdbd
0.039836124 0.08860691 0.07224013 -0.123659566

head1.weight f4 [4, 64]
00000000: c0e7 7e3d d03f 5b3c 6e04 e83d 90f1 b13c
00000010: 0076 783d 3095 a4bc dce0 1f3d bee5 c03d
00000020: 3ec5 973d a0b2 34bd b8b9 003d 7052 7cbc
00000030: 8028 febb fee5 a1bd d0d9 5e3c 1436 9d3d
00000040: 1a90 ccbd 40e6 923b 1645 c23d 285c 503d
00000050: 1042 d9bc 9af9 e53d 2634 ef3d 22f2 ee3d
00000060: 6032 fdbd 1079 76bd 7036 56bd a048 b4bb
00000070: 32b8 edbd d2ba c6bd 2800 7f3d 3c00 e13d
00000080: 44a1 22bd a61d 8f3d cc3d 2b3d 6cc4 333d
00000090: a0f9 79bc 40ef 6a3c 866c d33d 40d2 58bc
000000a0: bc8b 0bbd 0871 a4bc 0cbf b03d 88c2 803c
000000b0: 5c28 233d 0850 4b3d 2007 cf3d b222 9e3d
000000c0: 5469 91bd 24ac a53d f800 dc3d aa92 8f3d
000000d0: 1487 8f3d 18c7 15bd 58d6 91bc 9007 55bc
000000e0: 0884 c0bd 00dd f1bd 14e8 8e3d 7238 c5bd
000000f0: 664e 87bd c404 99bd c86b 9cbc 506d 19bc
00000100: d847 efbc 3069 a43d 50a6 84bd 0a1f 98bd
00000110: 7810 a03d e01e 4ebc 9c1c 5abd 2445 d13d
00000120: d081 5d3c c823 4fbd 844f 8cbd 82d4 8abd
00000130: 2006 e9bb d81b 853c 48f7 72bd 907f e5bc
00000140: 00e2 d1bc 5432 f7bd b45d 9e3d 20c5 d93c
00000150: dcc8 8cbd 8caa c0bd 0051 3dbd 5eda 893d
00000160: 1472 febd d62f db3d 28fc 0f3d 88e8 de3d
00000170: 20c8 f43c 6c1a efbd e4e0 d5bd d883 b53d
00000180: 60ce b83b 0a6a a2bd 2875 a9bc ca2e e43d
00000190: 4465 d0bd e0cb db3c 4034 3d3d 1218 f3bd
000001a0: fcbb 0dbd 4ceb 21bd 20c7 35bc 7a91 e0bd
000001b0: 108a 26bc 083b acbc 54c4 ff3d 2294 c13d
000001c0: 947c 523d 24b1 843d fcfd 123d 100d 34bc
000001d0: 2a10 e63d d4c3 f83d 4efa b3bd 24d4 debd
000001e0: a030 1dbc 70a3 883c 8055 d03d 008a 6ebd
000001f0: 2087 b33b 80ad 28bb 0825 bf3d 388f f1bd
00000200: 8427 b33d 80cf 83bd a4a1 a53d ec28 a33d
00000210: 5cce d73d 00db 393a 1043 42bd 70ec 743c
00000220: a058 823d b6d5 a73d 70ab 43bc bc0f ffbd
00000230: 6887 ed3d 4ce6 80bd 10a8 833d f0d5 2ebc
00000240: d2ab 873d 80e1 bcbd 4c6e 3ebd c8f0 abbd
00000250: 2e16 f8bd c802 c33c 3c75 72bd b6ed b13d
00000260: c464 263d e0c0 e13b 649e 4f3d 46b5 c9bd
00000270: 12e9 acbd 6066 9d3d 3e59 c3bd 1460 5a3d
00000280: 6054 d1bb 2ae1 cebd 5055 603d a811 c8bd
00000290: c088 d43d 108a 473c ecd0 8fbd ce8b fabd
000002a0: c0b1 663c ae72 c43d 4834 cf3d 2c66 e63d
000002b0: b886 93bd 60bf a63b 5e47 8b3d b468 453d
000002c0: 54f1 e03d f83a f0bc 308e 55bc 907f 4bbd
000002d0: b42e 5c3d 7091 c93d b0eb 873d 6e81 f5bd
000002e0: 0e23 8ebd 1c74 33bd dabc a83d b605 d2bd
000002f0: ac4d 3e3d ecf0 81bd c49b 00bd 005e 8f3a
00000300: 9021 be3d 800d 8a3d d085 3fbc 4ae6 b0bd
00000310: 1aee cd3d 808f 8c3d 4030 f53b 10e6 1abc
00000320: 3069 53bc 94eb d2bd ba85 9e3d 90de 983c
00000330: 1842 9abd b06b edbd e4df 4d3d 9aa2 d83d
00000340: 9c6d 413d 98b0 b8bd 28c6 203d 4248 873d
00000350: 8c9a 573d 6010 0bbd bc23 f2bd d497 793d
00000360: 10ce 53bd 6a48 96bd ca3a e3bd b094 a93d
00000370: 688b e6bd 2041 9e3b 1cf3 efbd b640 e93d
00000380: 68ee 143d d852 e73d 281c c2bd 08ec 3a3d
00000390: 4250 8a3d 4cbb f5bd 0cbb 463d d0ca afbd
000003a0: 44f0 843d 6889 643d c045 ddbb 0866 5e3d
000003b0: a6a7 fdbd 343b 063d d838 bebd 52a4 d8bd
000003c0: a8a8 b23c c06f 6d3d 2886 c0bd c212 f0bd
000003d0: 8093 b53a 441f 3bbd 2074 343c 504e ddbd
000003e0: 42ff 95bd 4c87 6b3d 3ed6 a63d e853 8dbc
000003f0: d827 adbc 72fd 843d a8fa 973d 98a4 8f3d
0.062232733 0.013381913 0.1132897 0.021721631 0.06065941 -0.02009067 0.039032802 0.0941882
0.07410668 -0.044115663 0.031427115 -0.015400514 -0.007756293 -0.07905196 0.013601735 0.0767633
-0.09988423 0.0044830143 0.09485833 0.050869137 -0.026520759 0.11229248 0.116798684 0.11667277
-0.12363124 -0.060174048 -0.05229801 -0.0055018216 -0.11607398 -0.09703602 0.06225601 0.10986373
-0.039704576 0.06988077 0.04180698 0.043888494 -0.015257269 0.014339268 0.103234336 -0.013233721
-0.034068808 -0.020073429 0.08630189 0.01571776 0.03983341 0.04963687 0.10108781 0.07721461
-0.07100168 0.08089474 0.10742372 0.07010396 0.07008186 -0.036566824 -0.017802402 -0.013002291
-0.09400183 -0.118097305 0.06977859 -0.09629907 -0.0660675 -0.07471612 -0.019094363 -0.009364441
-0.029209062 0.080278754 -0.06477034 -0.07427795 0.07815641 -0.012580603 -0.05324994 0.10218266
0.013519719 -0.050571233 -0.06851104 -0.06778814 -0.007111326 0.016248628 -0.059317857 -0.028014928
-0.02562046 -0.12070146 0.07732716 0.026583254 -0.068742484 -0.09407529 -0.046219826 0.06731103
-0.124241024 0.10702483 0.035152584 0.108841956 0.029880583 -0.116749614 -0.10443285 0.08863038
0.005639836 -0.079303816 -0.020685747 0.11141737 -0.10175565 0.026830614 0.046192408 -0.118698254
-0.034603104 -0.039531037 -0.011094838 -0.109652475 -0.010164753 -0.021024242 0.124886185 0.09452082
0.05138834 0.064790994 0.03588675 -0.0109894425 0.11233552 0.12146726 -0.08787976 -0.10880306
-0.009594113 0.016679496 0.10172558 -0.058237076 0.0054787546 -0.002573818 0.09333235 -0.11794895
0.087477714 -0.06436062 0.08087471 0.079667896 0.10537407 0.00070898235 -0.047427237 0.014948949
0.0636456 0.08195059 -0.011942729 -0.12454173 0.11598092 -0.06293926 0.0642854 -0.010671124
0.06624569 -0.09222698 -0.046491906 -0.08395535 -0.121136054 0.023805037 -0.059193835 0.08687918
0.04062344 0.0068894476 0.050688162 -0.09849028 -0.08442892 0.07685542 -0.09538506 0.053314283
-0.006388232 -0.101015404 0.05476886 -0.09768993 0.103776455 0.012178913 -0.070222706 -0.12233697
0.014080465 0.09592186 0.10117394 0.112499565 -0.0720343 0.0050887316 0.068007216 0.048195556
0.1098353 -0.029324993 -0.013034388 -0.0496822 0.053755477 0.09842193 0.06636751 -0.119875774
-0.0694028 -0.043811902 0.082391456 -0.102549955 0.046460792 -0.0634478 -0.03139855 0.0010938048
0.09283745 0.06740856 -0.011689618 -0.08637674 0.1005518 0.06863308 0.0074825585 -0.009454265
-0.012903497 -0.10298839 0.0774035 0.018660814 -0.07532138 -0.115928054 0.050262347 0.10577889
0.047223672 -0.090180576 0.039251477 0.06605579 0.05263762 -0.033951163 -0.11823222 0.06093581
-0.05171019 -0.07338031 -0.110951975 0.08280313 -0.112570584 0.004829541 -0.11716291 0.11389296
0.036360174 0.11295098 -0.09478027 0.045635253 0.06753589 -0.11998615 0.048518226 -0.08583605
0.064911395 0.055795103 -0.0067526996 0.054296523 -0.12385492 0.032771304 -0.09288186 -0.105782166
0.021808937 0.0579679 -0.09400588 -0.11722328 0.0013853163 -0.045684114 0.0110140145 -0.108059525
-0.07324077 0.057502076 0.08146332 -0.017251924 -0.021137163 0.06493653 0.07420856 0.07013816

head1.bias f4 [4]
00000000: 42a9 de3d 382f 31bd a030 c6bd f6eb ae3d
0.10872127 -0.043257922 -0.09677243 0.085411
