output/modello.pth (torch, 155455 bytes, 12 tensors)

encoder.0.weight f4 [128, 32]
000000 37 f4 25 bd d3 97 f7 3d d4 d8 db bd 77 78 12 3e
       -0.040516105 0.12089505 -0.10734716 0.14303766
000010 68 4a 67 3d a6 79 0b 3e da bf 81 3c 81 48 f8 3c
       0.056467444 0.13620624 0.015838552 0.03030801
000020 d9 47 e3 bd 5e 25 02 3e 9a bc 58 bd 6f a5 31 3e
       -0.11097688 0.12709567 -0.05291424 0.17348264
000030 85 a5 b1 3c f1 44 ed bd c1 d9 0f 3d c5 fc 32 3e
       0.021685371 -0.11585415 0.035119776 0.17479236
000040 24 22 8d bc 11 8f 31 3e cf 7f ca bd 28 61 01 be
       -0.017228194 0.17339732 -0.09887659 -0.12634718
000050 db ae 57 3d 03 e7 4e 3c a4 82 aa 3d a2 78 19 be
       0.05265699 0.01262832 0.08325699 -0.14987424
000060 4d c0 15 be 60 c5 b1 3c 71 26 12 be b4 8c a6 bd
       -0.14624138 0.021700561 -0.14272477 -0.08132306
000070 7e 6d ca 3d 01 73 64 3d 56 a9 06 be 8e 82 87 3d
       0.09884165 0.05577374 -0.13150534 0.06616698
000080 bc 86 1a be 97 0d 8a bd 97 2a 77 3c e1 d9 02 be
       -0.1509046 -0.06740873 0.015085838 -0.12778427
000090 21 46 be 3c a3 07 3c 3d 45 2d b4 bc 02 9a 10 bd
       0.0232268 0.04590572 -0.021994242 -0.035303123
0000a0 d4 0d 03 bd 82 16 87 3d 12 e1 f6 3d f4 a1 18 bd
       -0.03199561 0.0659609 0.120546475 -0.037263826
0000b0 9c ce a4 bc d9 b0 ef 3c 6e d1 a9 bd d1 05 e8 3d
       -0.02011805 0.029259132 -0.08291899 0.113292344
0000c0 6e dd 34 be 1b 4b 1a be 56 28 1f 3d 8c c9 78 bd
       -0.17662594 -0.15067713 0.038856827 -0.060739085
0000d0 f1 34 9b 3c af e2 18 bc 3a bd f6 bd e2 63 74 3d
       0.018946143 -0.009331389 -0.12047811 0.05966557
0000e0 9e 2d 72 bd fe d0 81 3d 45 91 96 3d f9 23 dd bd
       -0.059125535 0.0633869 0.07351927 -0.10797877
0000f0 65 14 bc bd 7d a5 e1 bd 4a 2f d1 bd 0c ef 96 bd
       -0.091835774 -0.110178925 -0.10214098 -0.07369813
000100 7c 73 29 3e f7 45 a9 bd 43 01 bb 3d 9e a3 09 be
       0.1654796 -0.08265298 0.091311 -0.13441321
000110 23 8d b6 3d 16 71 38 3d a7 59 26 be 2b 3a 1d bd
       0.089136384 0.045029722 -0.16245137 -0.03838555
000120 f8 25 2b 3d f0 da a0 3d d4 b9 26 be 1c 3c 1b bd
       0.041784257 0.07854259 -0.16281825 -0.03789912
000130 49 09 09 be f8 1b ca 3c d1 d6 eb bd dc 88 f2 bb
       -0.13382448 0.02467154 -0.11515582 -0.007401569
000140 c8 2a 0d 3e c9 8a 62 3d 15 05 6b bc 8a 3a 24 3e
       0.13785851 0.055308137 -0.014344473 0.16037956
000150 bf b1 29 be 3f 9b 83 bd c7 cd 22 be fb 83 94 bd
       -0.16571711 -0.06426095 -0.1589881 -0.07251736
000160 75 17 c3 bd 5e 06 22 bd b4 13 5b bd a8 74 0a 3d
       -0.095259584 -0.039556853 -0.053485587 0.03380266
000170 1f 59 05 3e 8f 10 ce 3d 74 ba 02 be 91 5f 51 3d
       0.13022278 0.10061752 -0.12766439 0.05111653
000180 8e 75 25 bd 66 ab 31 3e 33 d9 81 bd 2b 87 f1 bc
       -0.040395312 0.1735054 -0.063402556 -0.029483398
000190 98 12 b0 bd da e5 a1 bd 37 e3 19 3b 7f 21 c9 3d
       -0.085972965 -0.07905169 0.0023481378 0.09820842
0001a0 9c b3 de bd d2 e3 22 be b0 88 c5 3c 30 05 32 bc
       -0.108741015 -0.15907219 0.02411303 -0.010865495
0001b0 a0 04 48 3d fa 49 85 3d 6f 66 5d 3d 9c 0d 93 3c
       0.048832536 0.065082505 0.054052766 0.017950825
0001c0 87 e3 ae 3d 04 23 95 3d ef b5 32 be 9f d2 d9 3c
       0.08539491 0.07282069 -0.17452215 0.02658969
0001d0 dd 04 80 3d 8a 60 87 bd 33 3e 28 be d8 31 dc 3d
       0.062509276 -0.0661021 -0.16429977 0.107516944
0001e0 aa aa 27 3e 2a 61 c9 bd 21 10 9c 3d 78 4f 23 3d
       0.16373697 -0.09832986 0.07620264 0.03987071
0001f0 0f c2 e7 3d 54 2e 15 3d 7d 4e 29 3d f3 5f 9b bc
       0.113163106 0.036421135 0.041334618 -0.01896665
000200 d8 a2 6a bd 06 31 f4 3b 9f 3f db bd 5b 8c 33 be
       -0.057284206 0.007452133 -0.10705494 -0.1753401
000210 d5 53 33 bd 47 2a cf bd bd 13 2a be d8 85 ca 3d
       -0.04378112 -0.10115486 -0.16609092 0.0988881
000220 6a d6 b9 3d c1 ce 04 3e ae c7 30 be 4f 15 07 3e
       0.09074099 0.12969495 -0.17263672 0.13191722
000230 7d 33 33 be e2 2a 28 3e b7 99 30 3e 4f c8 1d 3e
       -0.1750011 0.16422608 0.17246138 0.15408443
000240 6d 49 ea 3d 4b 30 60 3c d8 58 ee bd 94 7f e6 3d
       0.11439786 0.013683389 -0.11638039 0.11254802
000250 5f 8b 8f 3d 7c b4 24 be 67 db 19 3d e9 61 d0 bd
       0.07009005 -0.16084474 0.037562754 -0.10174925
000260 07 66 98 bc 09 0f 28 3e c2 4e 19 be dc f1 d2 bc
       -0.018603338 0.16411985 -0.1497145 -0.025750093
000270 35 38 a7 bd 1e e9 d1 3d f0 4f 2d 3e fe e2 1f be
       -0.081650175 0.10249542 0.16925025 -0.15613934
000280 fb ef 2a be 16 60 06 3d a4 f7 98 3d d7 6e 6e bd
       -0.16693108 0.03280648 0.07469109 -0.058211174
000290 9a d9 20 be 5e 7a b3 3d 4d 35 4b 3d 8d a4 26 3e
       -0.15708008 0.08763574 0.04961138 0.16273709
0002a0 68 83 2e bd 74 4a 73 bd e2 4d 01 be d5 d9 ee 3d
       -0.042605788 -0.059397176 -0.12627366 0.11662642
0002b0 0f 28 fe bd 82 75 24 3e c6 21 08 3e 22 c5 da 3d
       -0.12409984 0.1606045 0.13294134 0.10682131
0002c0 21 2c 27 be d4 d7 b4 3d 8f 7f 84 bc f3 12 31 be
       -0.16325428 0.088302284 -0.016174106 -0.17292385
0002d0 03 84 cd bd 29 78 2a bd d2 48 2f be 97 d2 09 bd
       -0.10034945 -0.0416185 -0.17117622 -0.0336481
0002e0 c0 e3 74 3b 25 2f 26 3e fd 4d 6a 3d fc 00 47 bd
       0.0037367195 0.16228922 0.05720328 -0.048584923
0002f0 76 32 0e 3e b7 85 0f be 85 8b 46 3d ec aa b8 3d
       0.13886437 -0.14015852 0.0484729 0.09016976
000300 30 7c 11 be b9 6b 06 3e ad fe 19 3c d7 ec c1 3d
       -0.1420753 0.1312703 0.009399098 0.09469002
000310 66 6d 57 3d 19 1a 18 3e 47 05 93 bd 8e 49 03 be
       0.052594565 0.14853705 -0.07178741 -0.12821028
000320 28 67 78 3d 20 ef 21 3e 01 29 84 bd 26 cb 98 bd
       0.060645252 0.15813875 -0.064531334 -0.074606225
000330 e3 87 23 be f3 4d 02 3e df a1 ae 3d 79 e2 d2 bd
       -0.15969805 0.12725048 0.08526968 -0.102971025
000340 c8 da 08 be 3f af e5 bd 23 47 1a 3e 90 16 23 3c
       -0.13364708 -0.11215066 0.15066199 0.00995411
000350 6b d2 31 be 8f 47 6e bd fd 08 99 bd dc e2 b3 3d
       -0.17365424 -0.058173712 -0.074724175 0.08783504
000360 c5 35 83 bd 83 3d 1b be 14 ff 1a 3d e4 d5 16 3e
       -0.0640674 -0.15160184 0.037840918 0.1473003
000370 9f a7 ce 3d 56 16 04 be 4b a3 0e 3e ff a8 fd 3b
       0.10090565 -0.12899145 0.13929479 0.007741093
000380 24 34 13 be b0 00 da bd 9e 95 e3 bd 51 03 7c bd
       -0.14375359 -0.106446624 -0.111125216 -0.0615266
000390 56 3c b8 bd 63 d9 ec 3d 03 6c 0f bd d7 4a a7 3c
       -0.08995883 0.11564901 -0.035015117 0.020421429
0003a0 66 a5 a9 3d c1 e5 03 3e 18 8c 60 3d f1 50 2b 3e
       0.082835004 0.12880613 0.054821104 0.16730095
0003b0 06 6c 0c 3e aa 33 78 bc 5e 54 c9 bb d4 87 f9 bc
       0.13713083 -0.015149036 -0.0061440906 -0.030460276
0003c0 90 f8 70 bd 38 04 c0 bd a8 b9 14 3e 2e b0 33 be
       -0.058830798 -0.09375805 0.14523947 -0.17547676
0003d0 d8 36 f7 3d 4d aa e7 3d 48 a8 df bd ae f1 25 3c
       0.120710075 0.11311779 -0.10920769 0.010128422
0003e0 d2 31 b8 3d ae de 2b 3e ec 49 5a 3d 7b 5e db 3d
       0.089938775 0.16784164 0.053293154 0.1071138
0003f0 a0 91 fb 3d fb c6 3d bd 27 47 b0 3d 9d 2f ba bd
       0.12283635 -0.04633234 0.08607321 -0.09091113

encoder.0.bias f4 [128]
000000 c8 7c 33 3e 50 9c ed 3d 5d a6 da 3d 36 4b 32 be
       0.17528069 0.1160208 0.106762625 -0.17411503
000010 fe f6 f3 3d 2e 16 5a bb 65 12 18 be af 62 14 be
       0.119123444 -0.003327738 -0.14850767 -0.1449077
000020 88 be 35 3d af 17 a1 3c 7c d0 dd bc 99 52 29 bd
       0.044371158 0.019664614 -0.027076952 -0.041338537
000030 53 52 8c bd 17 a5 0c 3d 5d 2e 0d 3e b7 3b 36 bd
       -0.068516396 0.03433713 0.13787217 -0.044490542
000040 a1 bf 31 3e 7d 0f d3 3c 2b 87 14 be db bb d7 bc
       0.17358257 0.025764221 -0.14504687 -0.026334694
000050 68 05 dd bd 1b 91 80 3d 9b b4 31 3e 95 7e a3 bd
       -0.10792047 0.06277677 0.17354052 -0.07983128
000060 1d f8 f9 bd c7 04 cb bd 2b fc a9 3c 76 b1 1b 3b
       -0.12205527 -0.099130206 0.020750126 0.0023756898
000070 47 1f 40 3c 41 9e 27 3e 46 06 9b 3d 51 98 14 be
       0.011726207 0.16368963 0.07569556 -0.14511229
000080 53 20 e6 bd 10 2c 34 3e fa 1f 27 3b fc 99 99 3d
       -0.11236634 0.17594934 0.0025501237 0.07500073
000090 7b 41 a9 bd 40 97 6c bd a8 15 14 be b5 1c 29 be
       -0.082644425 -0.05776143 -0.14461386 -0.16514857
0000a0 f2 58 ac 3d b5 c0 16 be 4d 92 29 3c ea b0 0b be
       0.084154025 -0.1472195 0.010349822 -0.13641706
0000b0 b0 cf fd 3d 56 42 0c be 95 cd 22 3e 9b 2c 16 be
       0.12393129 -0.1369718 0.15898736 -0.14665453
0000c0 7b 43 e4 3d e6 ca 2a 3e 71 ca 01 3e 63 c5 e6 bc
       0.111456834 0.16678962 0.12674882 -0.028170293
0000d0 ee cf 30 3e f8 56 4c bc 34 a8 99 bd d6 0e 08 3e
       0.17266819 -0.012471907 -0.07502785 0.1328691
0000e0 49 51 fa bd d8 2f 57 3d dc bb a8 3d c3 ea e4 bc
       -0.12222535 0.05253586 0.08238956 -0.027943974
0000f0 c6 7e 16 be 92 3b 23 3d e0 86 68 3d e0 7c bf bd
       -0.14696798 0.039851733 0.05676925 -0.0934999
000100 cf fa 31 3e 99 06 b5 bd 45 4a c3 3d f0 81 d2 3d
       0.17380832 -0.08839149 0.0953565 0.1027869
000110 53 aa 7b 3d 85 18 25 be 45 ae de 3d bb bc a8 3d
       0.06144173 -0.16122635 0.10873083 0.082391225
000120 12 45 29 3e 07 94 5a bd 3e 9c 37 bd 2e cd 2c be
       0.16530254 -0.053363826 -0.04482674 -0.16875145
000130 d8 04 ff bd 62 71 15 3d ba 73 0d be 86 b6 06 3e
       -0.12452096 0.036485083 -0.13813677 0.13155565
000140 0b db 1a be 9a 6a 1b be cc a6 58 3d 69 f6 d7 3d
       -0.15122621 -0.15177384 0.052893445 0.10545046
000150 6a 96 39 3c 5d 21 14 3e bb 78 b8 bd 22 89 a5 bd
       0.011327365 0.14465852 -0.090074025 -0.08082797
000160 a6 97 28 bc 62 fc 14 be 53 40 cf 3d 45 aa 0a be
       -0.010290062 -0.14549401 0.10119691 -0.13541515
000170 a7 15 0d 3e 33 25 33 be 4a 7a 04 be fb 7a 02 be
       0.13777791 -0.17494659 -0.12937275 -0.12742226
000180 2f 0b 1d be 73 23 09 be 9d eb 13 3e a4 43 9e 3d
       -0.15336297 -0.13392429 0.14445348 0.07727745
000190 92 cf 0b be 8c bb 35 3e f8 75 c7 bd 47 f2 9c bc
       -0.136534 0.17747325 -0.09739298 -0.019158496
0001a0 49 44 92 bd 47 0d 18 be 6e 2c 1f be d5 ed 12 3e
       -0.071419306 -0.14848815 -0.15544292 0.14348538
0001b0 76 89 b3 3c a3 8a a4 bd ec 69 92 3d b6 f5 28 3e
       0.021916132 -0.08034255 0.07149109 0.16499981
0001c0 6c 9f 53 3d 95 7f fe bd 05 d9 95 3d 0f ad 05 3e
       0.05166571 -0.12426678 0.07316784 0.13054298
0001d0 9a 7e 0d be 10 d4 16 be 04 53 f8 3c ee f3 71 3d
       -0.13817826 -0.14729333 0.030313022 0.05907052
0001e0 09 4f 0a be 31 20 b5 bd 8c c4 79 3d 19 88 e0 3d
       -0.13506712 -0.08844031 0.060978457 0.109634586
0001f0 e6 bc 3a bd 8b cd 77 bc 5b 95 a1 bd 05 be fd 3d
       -0.045590304 -0.015124689 -0.078898154 0.12389759

encoder.2.weight f4 [128, 128]
000000 60 c2 22 bd dd 06 d4 bb 8d 78 e1 bc 70 05 c0 bc
       -0.03973615 -0.0064705447 -0.027523303 -0.023440093
000010 76 9c 22 bd 1f 11 ae 3d 75 7c a0 bd bf 6c a1 bd
       -0.039699994 0.08499359 -0.07836238 -0.0788207
000020 6f 64 81 3d e3 f2 4c bc dc 6f 22 3c 1d af 60 3d
       0.06317984 -0.012509081 0.009914365 0.0548545
000030 ff f9 07 bd 7c 19 a3 3d 0d 11 32 3b 83 ad 7e bc
       -0.0331974 0.07963845 0.0027170808 -0.015544298
000040 92 95 20 3d 28 43 3d 3d 02 7f 04 3d 8f 19 68 bc
       0.03920514 0.046206623 0.032347687 -0.01416625
000050 5a c5 91 3c 6c 73 37 3d d1 ac e9 3c eb a6 90 bc
       0.0177943 0.04478781 0.028524788 -0.017657718
000060 2c e8 87 bd a6 32 25 bb d6 78 a9 3d 48 04 54 3d
       -0.0663608 -0.002520719 0.08275001 0.051761895
000070 7f 8c a6 bc ac 28 29 3d d4 14 d8 bc 4f 9d bf bb
       -0.020330666 0.041298553 -0.02637712 -0.00584761
000080 0c 9d 3a bd ce 00 28 3d a5 1b 53 bd 2f 90 82 3a
       -0.045559928 0.041016392 -0.051540036 0.0009961183
000090 5e 94 61 3d df 58 8e bd 6a 26 8e bd d1 70 f7 bc
       0.055073135 -0.069505446 -0.06940921 -0.030205162
0000a0 28 93 de 3c 39 87 98 bd 64 76 fb 3c 4c ef 32 3d
       0.027169779 -0.07447667 0.030696101 0.043685243
0000b0 c3 55 01 bd 21 14 92 bd 66 d9 21 bd ea 9e 84 bd
       -0.03157593 -0.071327455 -0.039513968 -0.06475623
0000c0 3d 03 69 bc 79 34 79 bd 1a ef a7 bc 28 82 f2 3c
       -0.0142219635 -0.060841057 -0.020499755 0.029603079
0000d0 fb 9b 19 3d db d1 59 3a 58 7c 51 bc 26 f7 6a 3d
       0.03750227 0.0008309164 -0.0127859935 0.057364605
0000e0 f9 77 df bc c3 a4 40 3d c8 5e 0f 3d e8 75 ca 3c
       -0.027278887 0.04703213 0.0350025 0.024714425
0000f0 41 a4 1e 3d d4 a8 98 3d e3 42 27 3d ad e0 fb bc
       0.038730863 0.074540764 0.040835273 -0.030746782
000100 c8 9d 96 bd f7 b5 13 3b 7d 93 88 3d 3c ce 2b bd
       -0.07354313 0.002253888 0.06668756 -0.041944727
000110 86 1f 92 bd 17 dc d7 bb 0f ca d5 bc d2 0e 07 3d
       -0.07134919 -0.006587516 -0.026097326 0.032973118
000120 a7 89 a2 3d 6d b0 89 bd 49 bf a9 bd 92 40 b2 bc
       0.07936411 -0.06723104 -0.08288438 -0.021759305
000130 23 ce 50 3d 0a 4f 09 3d 7a 9d 5f 3d 0c 63 a0 3c
       0.050977837 0.033522643 0.05459354 0.01957848
000140 33 86 91 3d 89 49 3a 3d bd 32 56 bd df 71 79 bd
       0.071056746 0.045480285 -0.05229448 -0.06089961
000150 0f d8 13 bd 56 a5 a9 3d 2f 37 67 bd 71 62 70 3d
       -0.03609472 0.082834885 -0.05644911 0.05868763
000160 ba 31 b6 3b 1f de 90 3d 14 f1 ad bd 3d 0d a3 3b
       0.005560127 0.07073616 -0.08493248 0.0049759434
000170 47 b9 b6 bc 04 6f 95 bc 26 c4 f8 3a 2e f7 e0 3c
       -0.022305144 -0.018241413 0.0018979355 0.027461614
000180 4e 59 09 bd 35 4a 97 3d 87 ad 54 bd d4 16 3b 3c
       -0.033532433 0.07387201 -0.0519233 0.011419017
000190 94 45 2a 3d 15 96 9a bd 92 70 9c 3d 16 2f a3 3d
       0.04157026 -0.07548157 0.076386586 0.07967965
0001a0 2d 30 9c bc 88 a9 44 3d 11 47 c8 bc e4 f8 98 3d
       -0.01906594 0.04801324 -0.02444795 0.07469347
0001b0 89 dd 25 3d 9f cc 28 3d 03 d0 95 bb 2a 0e 9f 3d
       0.040494476 0.041210767 -0.004571916 0.077663735
0001c0 94 59 64 3d 2e e2 51 bb f6 74 b5 3d 6a a5 9f 3b
       0.05574949 -0.0032025683 0.08860199 0.004872014
0001d0 1f 05 9f bd 21 2d 88 3d 7e 4a 35 bd 6f 45 ec 3c
       -0.07764649 0.06649233 -0.044260494 0.028841702
0001e0 87 ed 4d bc 97 47 1c 3d ec 8e 5e 3d cb a0 1d bd
       -0.012568838 0.03815421 0.05433552 -0.038483422
0001f0 f6 e3 b3 3b 3d e3 b6 3b b5 e7 10 3d 14 b7 9f 3c
       0.0054898215 0.005581288 0.035377223 0.019496478
000200 6c d6 5f 3c d9 c9 5d bd 9c 16 55 3d 63 49 ad bd
       0.013661962 -0.054147575 0.052023515 -0.08461263
000210 9f 85 08 3d 7a 5c ae 3d e9 4f df 39 de b7 3c bd
       0.033330556 0.08513732 0.00042593412 -0.046073787
000220 c0 e5 7c 3d 40 5e e7 bb f7 ea 5c bd f0 57 af bd
       0.061742544 -0.007060796 -0.053935017 -0.085616946
000230 61 9a 65 3d 58 09 d0 bb c1 f6 68 bd 1c 92 c4 bc
       0.05605543 -0.00634877 -0.056875948 -0.023995452
000240 41 6d 20 3d 9f dc 87 bd ca 45 14 3d 27 0f 07 bd
       0.039166693 -0.06633877 0.03619937 -0.032973435
000250 a3 c9 22 3d 57 c3 23 3d f6 cd e3 3c 78 e9 34 bc
       0.039743077 0.039981212 0.02780817 -0.011041991
000260 b1 9b 6b bd 84 42 81 bd 81 c6 f5 b9 1d a6 35 bd
       -0.057521526 -0.06311515 -0.00046877938 -0.04434787
000270 d5 2d 9a 3d d5 e7 83 3d d8 07 0f bc 11 45 0a 3d
       0.07528273 0.06440703 -0.008729897 0.033757273
000280 1c 25 5c bd b6 c5 8b bd 62 8c 2f 3d 9f b5 9a 3d
       -0.053746328 -0.0682482 0.04285849 0.07554173
000290 ce 15 7a 3d a1 ee 7e bc 8c e7 d8 3c fa 30 75 bd
       0.06105595 -0.015559823 0.026477598 -0.05986116
0002a0 79 99 fd 3c 3d 6a 1d 3d 37 e8 dd 3b 7f a6 f2 3c
       0.03095697 0.038431395 0.006772067 0.029620407
0002b0 0d 1a 8b bd 7d 34 b1 bc dc 8e 5a 3d f5 af 58 3d
       -0.06792078 -0.021631474 0.053358898 0.05290218
0002c0 f1 17 7d bd 5d 44 1a bd 56 4d 47 bd 84 0d 17 bd
       -0.06179041 -0.037662853 -0.048657738 -0.036878124
0002d0 a5 66 03 3d 56 2c e5 3c b1 60 92 3d 83 68 3a bd
       0.03208031 0.027975243 0.07147349 -0.045509826
0002e0 c3 a7 aa 3d fa ce ed 3c f9 da 1e bc e9 aa 02 bb
       0.08332779 0.029029358 -0.009695762 -0.0019938296
0002f0 be 07 3b bc 32 fe 8b bc 7a a7 cd bc 4d 56 26 3d
       -0.01141542 -0.017088983 -0.025104273 0.040609647
000300 fd a8 6a bd 94 2f 10 bd 28 ef 06 3c 3d ad 87 bd
       -0.057290066 -0.035201624 0.00823573 -0.066248395
000310 3e 76 86 3d 16 ab b6 bd 6b 19 02 3d f6 9a a7 bd
       0.06565522 -0.08919351 0.03176252 -0.08183853
000320 9e 04 b7 3c 11 87 a3 bd bc e4 55 bd cb 2e c1 bc
       0.022341069 -0.07984746 -0.05222009 -0.023581883
000330 0a d0 76 3c 5d 20 a6 bd a7 26 aa bd e4 e3 98 3d
       0.015064249 -0.081116416 -0.083081536 0.07465342
000340 0b 68 8a 3d d5 06 92 bc 55 37 aa bd 78 04 d7 3c
       0.06758126 -0.017825523 -0.08311335 0.026247248
000350 5e 8e 82 bd 9c c2 80 bd a0 d4 8e 3c 39 77 62 3d
       -0.06374811 -0.06287119 0.017435372 0.05528948
000360 84 7b b7 3c 3a d9 29 bd 3c e7 e5 bc 94 c2 3d 3c
       0.022397764 -0.04146693 -0.028064363 0.011582036
000370 29 97 8a 3c 0a 5e 42 3d f2 fa e5 bc 2b 81 fe bc
       0.016917782 0.047452964 -0.028073762 -0.031067451
000380 28 6c 58 3d e3 ca a9 3d 88 cb 63 3d df e1 9e bd
       0.05283752 0.08290651 0.055614024 -0.07757925
000390 c9 05 3b bd 68 29 25 3d 04 f2 8d bd ff 15 10 bd
       -0.045659814 0.04032269 -0.069309264 -0.035177227
0003a0 e9 cd e6 bc b3 fe 1f bd 7b c3 4b bd c5 9e b2 3d
       -0.028174357 -0.03906126 -0.04974697 0.08721689
0003b0 28 dd 89 bc db 46 86 bd 59 1e b0 3c 9e 78 86 3d
       -0.016829088 -0.06556483 0.021498846 0.06565975
0003c0 4e 27 27 bd b2 5f 6b bd e4 b1 a2 bd dc c2 09 3d
       -0.04080897 -0.05746431 -0.07944086 0.033633098
0003d0 18 fe fb 3c 42 3a 92 bd df 4b ce ba f7 58 c2 3c
       0.03076081 -0.07140018 -0.0015739164 0.023724062
0003e0 3e 7c 5a 3b 1e c0 6a bd 74 b0 11 bc a0 5f 7c 3c
       0.0033338214 -0.057312123 -0.008892167 0.015403658
0003f0 60 e2 94 bd 49 fe af 3d c6 7a 70 bd 70 da f5 ba
       -0.0726974 0.08593423 -0.058710836 -0.0018757116

encoder.2.bias f4 [128]
000000 d7 7c 4b 3d 76 62 07 3d 14 b0 71 bc 53 47 3e 3c
       0.049679603 0.033052884 -0.014751453 0.011613685
000010 9a 8d 8b bd 69 3d 57 3d 0c 51 55 bd 62 c6 f9 bc
       -0.06814118 0.0525488 -0.052079245 -0.030490104
000020 07 00 61 bd 4e 22 78 bd 67 3a 8b 3d e2 28 8f 3d
       -0.054931667 -0.06057959 0.06798249 0.0699022
000030 ba 23 8b bd 3e 1f 25 bd 76 41 b4 3c 53 a4 7c 3d
       -0.06793924 -0.040312998 0.02200387 0.06168015
000040 10 6e 2c bd 8a 2a 9f bd 86 ac 60 3d 47 54 a8 bd
       -0.04209715 -0.077717856 0.05485203 -0.082192
000050 f7 39 62 bd fd 02 a1 3d 6e 77 ae 3d df 03 a7 3d
       -0.05523106 0.07861898 0.08518873 0.08155035
000060 00 56 0b bd 53 a4 aa bb 62 fb 1e 3d 9d ad 48 3c
       -0.034017563 -0.0052075773 0.038813956 0.012248424
000070 61 e4 82 bd 55 c5 4e bd 4c 87 9a 3d 63 4f 64 3c
       -0.06391216 -0.05048116 0.07545337 0.013934943
000080 52 df 73 3d 00 6d 83 3d a9 22 41 3d ef 84 b3 bd
       0.059539147 0.064172745 0.047152195 -0.087655894
000090 96 39 4c bd 29 97 73 bd e8 f2 a4 3d 8a 15 b3 3c
       -0.049859606 -0.05947033 0.08054143 0.021860857
0000a0 40 17 4b 3d b1 f6 36 bd fe 31 0d bb 85 2c 81 bc
       0.04958272 -0.044668857 -0.002154469 -0.015768299
0000b0 d9 81 99 bc 4f 64 00 3d 8d e1 b4 bd a8 57 a0 3c
       -0.018738674 0.03134566 -0.08832083 0.019573048
0000c0 4e 18 b1 3d 6e 78 0b 3d dd c8 a1 3d 61 23 94 3d
       0.08647214 0.034050398 0.0789964 0.072333105
0000d0 14 d1 96 bd 87 38 ad 3d e3 d0 b5 bd 74 3f a2 bd
       -0.07364097 0.08458047 -0.088777326 -0.07922259
0000e0 98 3f a9 3d 5d 22 66 bd 20 8d 19 3d 3f 53 90 bd
       0.08264083 -0.056185115 0.037488103 -0.07047128
0000f0 b7 30 a5 3d d3 c5 9f 3d 30 3e 15 3a 8f d1 2b 3c
       0.08065932 0.07801404 0.00056931656 0.010486974
000100 a8 a8 0d bc 67 46 1c bd d2 ea 54 3c 35 56 29 3d
       -0.008646168 -0.03815308 0.012995439 0.04134198
000110 6a 94 89 3d 1c 15 40 bd 4b 40 6e 3d 27 58 0e 3d
       0.06717761 -0.04689513 0.058166783 0.034752037
000120 d5 ca a2 3d 85 3d ec 3b cd d8 16 bc ef ff a4 bc
       0.079488434 0.007209482 -0.009206963 -0.02014157
000130 c7 87 86 bd d9 4d 66 bd 4a 57 ac bc 75 ef 00 bc
       -0.06568866 -0.056226585 -0.021037716 -0.007869591
000140 6b 8c ce 3c b5 39 11 bd 69 c9 50 bd 97 7e 0d bd
       0.02521344 -0.035455424 -0.05097333 -0.034544554
000150 71 19 ac bd f7 04 76 3c ce c0 5c 3d f2 9d 8f bc
       -0.0840329 0.015015832 0.05389481 -0.017531369
000160 79 66 72 bd 0d b2 36 3b 09 37 6e bd 10 54 92 3b
       -0.059179757 0.0027877123 -0.058157954 0.0044655874
000170 bc 68 78 bd 88 cb 92 3d 98 37 93 3d af 64 9b 3d
       -0.060646757 0.07167727 0.07188338 0.07587563
000180 b8 e8 9a 3b e7 60 8c 3d f0 32 ca bc 43 9e 83 bd
       0.0047274493 0.0685442 -0.024682492 -0.064266704
000190 60 42 9e bd 4b 55 ff 3b 73 99 74 3d 03 e1 36 bd
       -0.07727504 0.00779215 0.059716653 -0.04464818
0001a0 13 bb 28 bc 10 e2 2c 3d e7 d6 33 bd 09 33 97 3d
       -0.010298508 0.042207778 -0.04390612 0.07382781
0001b0 10 61 a5 3c 0d 61 9f 3d a1 1c 54 3d be 20 68 39
       0.020187885 0.07782183 0.051785115 0.00022137442
0001c0 a7 a0 06 bd 5d bc 26 3d bc a9 ff bc 98 fd 83 bd
       -0.032868054 0.04070698 -0.031208865 -0.064448535
0001d0 bd 70 8d bd fd 71 fe 3b 52 ce 3e 3c 23 06 37 3d
       -0.06906269 0.0077650533 0.01164587 0.044683587
0001e0 83 38 a6 bc 2d 31 a1 bb df 3b 5f bd 60 64 1a bd
       -0.020290619 -0.0049191923 -0.054500457 -0.03769338
0001f0 01 b6 35 3d 76 25 dc 3c 61 b3 4e bd f1 2e 87 bd
       0.044363026 0.026873332 -0.050464038 -0.0660075

head0.0.weight f4 [64, 128]
000000 b2 12 a9 3d 13 e9 47 3c 04 e4 be bc a5 1c 41 3d
       0.08255519 0.012201565 -0.023302086 0.04714646
000010 79 bd a9 3d 01 5b 13 bd b2 16 3b bd 88 1c cd 3c
       0.08288092 -0.03597546 -0.04567594 0.025038019
000020 e2 7e 37 bd 32 50 af bc 2e 27 b4 3c c9 8f 9c 3c
       -0.04479874 -0.021400545 0.021991339 0.01911153
000030 61 5c 0d 3d 71 9f 0a 3d 71 40 79 bd d1 d4 93 3d
       0.034511928 0.03384346 -0.06085247 0.07218326
000040 39 5c 02 3b b8 55 37 3c 20 3d a6 bd a8 72 4d bd
       0.0019891395 0.011189871 -0.081171274 -0.050158173
000050 3c a4 0d 3d c4 83 41 bd dd 25 8e bd 21 10 68 bd
       0.034580454 -0.047244802 -0.069408156 -0.056656007
000060 70 63 7b bc 12 3a 8b 3d 48 f3 ea 3c 39 35 75 3c
       -0.015343532 0.067981854 0.028680459 0.014966303
000070 ad e2 91 3d 58 9a 53 bd 1a 6c 9a bd 2a 95 b2 3d
       0.07123313 -0.051660866 -0.0754015 0.08719857
000080 fa 99 a1 bd 14 37 17 bd 50 50 3b 3c 6f 88 a6 bd
       -0.07890697 -0.03691776 0.011432722 -0.081314914
000090 4d ed 9c 3d e5 8e 60 3d 00 9f 1a 3a a8 ce 9e 3c
       0.07662449 0.054823775 0.00058983266 0.01938565
0000a0 79 e7 4b bd 32 b1 1e 3d a8 0d a8 3d 6a e4 46 bd
       -0.049781296 0.038743205 0.0820573 -0.048557676
0000b0 3f d3 42 3d 8d 0c 85 3d c0 c6 35 bb b3 a4 2c 3c
       0.04756474 0.064965345 -0.0027736872 0.010537314
0000c0 ff f1 fc bc eb d8 90 bc d6 74 0e bd 42 70 3e 3d
       -0.030877111 -0.01768156 -0.034779392 0.046493776
0000d0 d2 a2 76 3d c1 15 84 bd 33 c4 86 bd d8 fa 25 3c
       0.06021387 -0.06449462 -0.06580391 0.010130607
0000e0 8c b8 3e bd ca a8 a6 3d c9 b9 94 3d 59 e0 4d bd
       -0.046562716 0.08137663 0.07261998 -0.050262783
0000f0 e1 b3 99 3d 4b af 2a 3d 16 d5 0e bd 6c 0b 30 bd
       0.07505012 0.04167108 -0.034871183 -0.042979643
000100 6e e4 ab bd b2 35 31 3d 73 43 d3 3c ce e2 50 bd
       -0.08393179 0.0432641 0.025788998 -0.050997548
000110 c4 d7 fb bc ac 76 93 bd 6b df db 3b 64 00 f0 3c
       -0.030742534 -0.07200369 0.006709983 0.029297061
000120 2e 33 a9 bd 3b c2 81 3d 1c ba a0 bd d2 3b 0e bd
       -0.08261715 0.06335875 -0.078479975 -0.034725018
000130 b8 05 51 3c c2 1e 44 3d f0 f8 e1 bb b8 29 ae bc
       0.012757711 0.047880895 -0.0068961307 -0.021260127
000140 c4 71 90 3c b2 59 72 3d 97 6f 41 3b ad fd 4e 3d
       0.017632373 0.05916757 0.0029515976 0.050534893
000150 9a 1e 94 bd 92 56 ca 3c 7e 8b 23 3c 3c 69 79 bd
       -0.07232399 0.024699483 0.009981988 -0.060891375
000160 78 81 d5 3c f0 f0 e8 bb 07 28 b3 bd 19 11 65 bd
       0.026062712 -0.0071088 -0.08747869 -0.05592451
000170 21 68 5b bd 99 0a 09 3c 6f 2a ad 3d 04 64 f0 bb
       -0.053566102 0.008364343 0.08455359 -0.0073361415
000180 fb 5d a7 bd 2a 97 ae bd dd 2f 3b bd e2 a4 b2 bd
       -0.08172222 -0.08524926 -0.045699943 -0.08722855
000190 b8 57 76 3c 10 b2 21 3d 20 b8 22 bd 1c b4 42 bd
       0.015035562 0.039476454 -0.039726377 -0.047535047
0001a0 78 ad 3e bd a6 8a 9d bd 86 c2 12 bd f3 4b 6c bd
       -0.04655215 -0.07692461 -0.035830043 -0.05768962
0001b0 60 b2 92 bb aa ed e1 bc fa 8a 22 3d 8e 5c 99 bd
       -0.0044768304 -0.027579147 0.03968332 -0.074883565
0001c0 cf bb 0f bc 6c 87 84 3d 74 4e 89 3c c0 8c f6 3c
       -0.008772804 0.06471142 0.016761042 0.030096412
0001d0 f8 53 e6 3c c0 e7 b8 3a f7 d3 5d 3d 63 c7 94 3d
       0.028116211 0.0014107153 0.054157224 0.072645925
0001e0 83 0a 6c 3c f6 07 ae bd af f7 90 3d a0 f9 79 bd
       0.014406803 -0.08497612 0.07078492 -0.061029077
0001f0 52 95 87 3d 67 7d 76 3d 20 dc 52 bd 5d c2 8b 3d
       0.066202775 0.060178187 -0.05147946 0.06824181
000200 50 07 7d 3c 7a 91 29 3d e9 34 a4 bd 76 6e 5c 3d
       0.015443638 0.041398503 -0.08017904 0.05381628
000210 48 ee 72 bd 3b c4 86 bd 3e 1b 0d 3d 2e b5 39 3d
       -0.059309274 -0.06580397 0.03444981 0.045338802
000220 60 47 90 bc 11 bb 88 3d 20 36 cc bc 0f d6 45 bd
       -0.01761216 0.06676305 -0.024928153 -0.048299845
000230 a6 36 70 3d f0 99 21 bc b0 15 93 3b 44 0c c1 bc
       0.058645867 -0.009863362 0.0044886693 -0.023565419
000240 43 e3 2e bd 92 4b 76 bd 14 b7 6b bd 46 51 13 bd
       -0.042697202 -0.060130663 -0.057547644 -0.03596618
000250 20 c0 e1 bc 33 d2 3d bd 61 60 b1 bd c0 c8 a0 3c
       -0.027557433 -0.04634304 -0.08660961 0.019626975
000260 f8 d5 02 3d b0 9e 71 3c b3 e2 a2 3d 63 fe 97 3d
       0.031942338 0.014747307 0.07953396 0.07421567
000270 04 46 04 bd 50 22 b8 3b ec 45 a7 bc f5 18 6c bd
       -0.032293335 0.0056193247 -0.020419084 -0.05764099
000280 ff 2d a2 3d e4 d1 bc bc 04 bc 3f bd 59 48 8d 3d
       0.07918929 -0.023049302 -0.046810165 0.06898565
000290 14 b3 8f bc 95 bc ad 3d fa 8c 58 3d b8 b1 69 bd
       -0.017541446 0.08483235 0.05286882 -0.05705425
0002a0 ea ff 68 bd 92 4b 57 3d 04 2b a9 bd d7 af 82 bd
       -0.056884684 0.052562304 -0.08260158 -0.06381195
0002b0 ef 0c b4 3d e8 9c 95 bc cc d5 89 bd e0 6f 9b bd
       0.087915294 -0.018263295 -0.06730232 -0.07589698
0002c0 40 62 d4 3c 24 11 12 3d 76 73 57 3d f3 59 6b bd
       0.025925756 0.035660878 0.052600347 -0.05745883
0002d0 f8 71 8d 3c ec a8 6c bd 60 42 a3 bd a8 c6 04 bc
       0.017266259 -0.057778284 -0.079716444 -0.008104004
0002e0 e2 e6 24 3d 8b ec 94 3d 90 f8 af bc c0 e6 28 bc
       0.04025925 0.072716795 -0.021480829 -0.010308921
0002f0 44 ef 00 3d 9b 56 80 3d 76 5b 69 3d a2 ea 5f 3d
       0.03147818 0.06266519 0.05697199 0.054667123
000300 20 a6 f0 3b 65 1f a5 3d 2a 30 7e bd 80 a8 d6 ba
       0.0073440224 0.08062629 -0.06205765 -0.0016377121
000310 e8 42 ca bc 87 0d 45 bd 5d 51 06 bd 52 c1 3e 3d
       -0.024690107 -0.048108604 -0.032792438 0.046571083
000320 72 ac 56 3d a9 f2 4e bd cc b0 55 bd 27 25 68 bd
       0.05241055 -0.050524388 -0.05217056 -0.056676056
000330 e0 e4 25 bd 34 39 cc 3c d8 4f 1a bc c8 b5 d4 bc
       -0.040501475 0.02492962 -0.00941845 -0.025965586
000340 a1 4c 92 bd 30 a6 0f 3c 0e 29 6c bd 43 46 84 3d
       -0.07143522 0.0087676495 -0.05765634 0.06458714
000350 40 09 50 bd 68 4f 89 3c 87 c2 81 bd 08 f9 dc bc
       -0.05079007 0.016761497 -0.06335931 -0.026974216
000360 0b 17 84 3d 8e 62 26 3d 58 0c 9c bd b4 73 d5 3c
       0.064497076 0.040621333 -0.07619542 0.026056148
000370 d2 87 7a bd 7d ea 8d bd 0b e5 96 bd 0a 36 02 bd
       -0.061164685 -0.06929491 -0.07367905 -0.031789817
000380 20 06 ef bc a2 17 23 3d 7a 7f 3a 3d 68 c8 91 bd
       -0.029177725 0.03981746 0.045531727 -0.071183026
000390 a6 13 77 3d 7f 29 a1 3d f9 2d 9f 3d 07 b5 27 bd
       0.060321473 0.07869243 0.077724405 -0.040944126
0003a0 c7 a6 82 3d 0b 1a a8 3d 9d 99 a3 3d e0 5c eb 3c
       0.063794665 0.08208092 0.07988284 0.02873081
0003b0 48 4b 90 bc 08 8e 70 3c e8 5a 52 bc 92 92 5c 3d
       -0.017614022 0.0146823 -0.012839057 0.053850718
0003c0 8a db 32 bd 56 30 0d bd ff b3 5e bd f2 5c 93 bd
       -0.0436664 -0.034469925 -0.054370876 -0.07195462
0003d0 e9 df b0 3d 56 25 94 bd 2b ef 31 bd 94 5c e9 3c
       0.086364575 -0.07233684 -0.04344098 0.028486528
0003e0 72 13 7c 3d 37 1e 87 bd 7f c5 a9 3d 74 21 bf bc
       0.061541982 -0.0659756 0.082896225 -0.023331381
0003f0 fe 9c 73 bd 86 59 26 3d e4 c1 fa bc 60 43 67 3b
       -0.05947589 0.04061272 -0.030610032 0.0035287961

head0.0.bias f4 [64]
000000 05 30 a1 bd d9 8c 8f bd 2e 1d 5f 3d 4b 89 98 3d
       -0.07870487 -0.070092864 0.054471187 0.074480616
000010 ca 8b c0 3c f0 a3 87 bd 9a 4d 6f 3d 1c 28 bf bc
       0.023504157 -0.066230655 0.058423616 -0.023334555
000020 90 66 cf bc c6 a8 93 bd 3e b6 a8 3d 1f a9 ac bd
       -0.02531746 -0.07209925 0.08237885 -0.08430695
000030 aa 47 bf bb 5b 4a 47 bc e2 6d 70 bb 4c 58 a6 bc
       -0.0058374004 -0.012163724 -0.003668659 -0.020305775
000040 2d 2c 1d bd 0b ec a2 3d 4a 5d 91 3d 15 af 8f bd
       -0.038372207 0.07955178 0.070978716 -0.07015816
000050 cd f3 fd 3a e4 16 e5 3c e3 6d 89 bd d2 73 30 3d
       0.0019375026 0.027965017 -0.06710412 0.043079205
000060 e2 24 8b bd d3 73 e5 bc 0d 2d 4a 3d 95 26 05 3d
       -0.06794144 -0.02800933 0.04935937 0.032507498
000070 24 87 1e 3d 20 24 1e bc 1a 55 36 bd 05 2d 16 bd
       0.0387031 -0.009652168 -0.044514753 -0.036664028
000080 1b 73 84 bd f4 ac 8f bd 1d 5a 5f bd da 4f 0b bd
       -0.06467267 -0.0701541 -0.054529298 -0.0340117
000090 ce d5 ab bc 2d f4 48 3c 6f b5 3b 3d 81 47 45 bd
       -0.020975973 0.012265247 0.045827325 -0.048163895
0000a0 47 69 d1 3c e5 fa 36 3b 29 dc 4c bd 52 aa a9 bd
       0.025562895 0.002792054 -0.05001465 -0.08284439
0000b0 6c fe 53 3d db b9 29 bd b2 50 2f 3d 1d e0 82 bd
       0.051756307 -0.04143701 0.042801566 -0.063904025
0000c0 04 5c 86 bd 46 ac 7a 3d 68 04 2d bd 4d 9a 8b 3c
       -0.06560519 0.06119945 -0.04224053 0.01704135
0000d0 2e b2 0f 3d 24 04 31 bd 60 ca 8d 3d db 58 74 3b
       0.035082035 -0.04321684 0.069233656 0.0037284407
0000e0 ca 66 91 bd 88 37 56 bd 68 d1 78 bd dc f2 28 bd
       -0.070996836 -0.052299052 -0.06074658 -0.041247234
0000f0 89 80 18 3d 29 a7 18 3d 04 d3 a2 3c 7f d8 3b bd
       0.037231956 0.03726879 0.01987601 -0.045860764

head0.2.weight f4 [4, 64]
000000 09 75 6e 3b 9c e2 5c 3d 2b 3a a0 3d bd 9e 79 3d
       0.0036385676 0.05392705 0.07823595 0.0609424
000010 c9 a0 85 3d 00 60 0d ba 74 27 35 bd f6 af d2 bd
       0.06524808 -0.0005393028 -0.04422708 -0.10287468
000020 06 d7 de bd c1 c4 bd bd 53 18 f0 bc 00 d3 bd 3d
       -0.10880856 -0.092660435 -0.029308474 0.09268761
000030 06 b4 5f 3c 59 c2 8e bd 08 09 bd bd 3a 7b e3 3d
       0.013653761 -0.069706626 -0.09230238 0.11107488
000040 f0 f3 50 3d ce 7a 89 bd 79 ab ac bc 74 ce ea 3c
       0.051013887 -0.06712876 -0.021077858 0.028662898
000050 b0 ab d5 bd ca 5e 82 3c 96 14 86 bd c6 1d 2a 3d
       -0.104331374 0.01591434 -0.06546895 0.0415323
000060 92 a1 83 3d e0 9d 15 bd e4 c8 f0 3d 75 a5 aa 3d
       0.064273015 -0.036527514 0.11757067 0.0833234
000070 af 69 44 bb d0 57 6a bd 16 dd b4 bd 60 b3 df bb
       -0.002997022 -0.05721265 -0.08831231 -0.006826803
000080 c6 33 d2 bd 68 2d df bd 70 34 0b bc 63 2b a9 3d
       -0.10263781 -0.108973324 -0.008496389 0.082602285
000090 10 ec 9c 3d cb d4 10 3d c1 32 dc 3d 6c 5a 6e bd
       0.07662213 0.035359185 0.10751868 -0.0581917
0000a0 a6 ff 92 3d f4 b0 ab bd d6 eb 4c 3b bc ea 4e bd
       0.07177667 -0.083833605 0.00312685 -0.05051683
0000b0 fa 23 e4 3d fc 4c 6a bd 6f 54 17 3d b7 6e fc bd
       0.111396745 -0.057202324 0.036945757 -0.12325805
0000c0 68 1b c9 3d e8 25 9e bd 78 ae bd 3d 8e b8 cb 3d
       0.098196805 -0.07722074 0.09261793 0.099473104
0000d0 25 f3 a2 3d 27 e7 69 bb 44 d0 50 bd 73 47 71 bc
       0.079565324 -0.0035690756 -0.050979868 -0.0147265075
0000e0 60 b8 c4 3c 18 72 99 bc 80 2a a9 ba 72 03 ca bc
       0.024013698 -0.018731162 -0.0012906343 -0.024659846
0000f0 b6 fb aa bd f2 ba b5 bd ad b1 05 3d 44 ce c1 bd
       -0.08348791 -0.088735476 0.032640148 -0.0946317
000100 38 69 e5 bd 2c b7 1a 3d 1f b2 d9 bd 46 12 44 bd
       -0.112017095 0.037772343 -0.10629677 -0.04786899
000110 93 21 aa bb 40 ac fa 3c 29 7d a1 3d 5d 2d 46 bb
       -0.0051919906 0.030599713 0.078852005 -0.003023944
000120 1c 6a 82 3d db fd b4 3d 8d ad c8 bd ed e8 dd 3d
       0.06367895 0.088374816 -0.09798727 0.10835443
000130 86 5c 1e bc 9d 05 c5 bc 18 8f f0 3c e0 e3 f4 3c
       -0.009665614 -0.024050528 0.029365107 0.029893816
000140 4f 58 7d bd 55 3a e6 bc c2 1e 50 bd 7f 86 1b 3c
       -0.061851796 -0.028103987 -0.050810583 0.009492516
000150 ef 35 b4 bd fb 1c 24 3d b8 b1 a6 3c 2e bb 5c 3d
       -0.087993495 0.0400667 0.020348415 0.053889446
000160 52 37 a3 bd ed ee 48 3d 30 98 6c bd 61 9c cd bd
       -0.07969536 0.049055982 -0.057762325 -0.100395925
000170 74 8b d3 3d e8 71 30 3d 78 f0 d9 bd a0 26 f0 3b
       0.10329333 0.04307738 -0.10641569 0.007328823
000180 ea 69 c5 bd 6c 28 e6 bd b0 be a1 bd 8d 53 b5 3d
       -0.09639342 -0.112381786 -0.07897699 0.08853827
000190 b1 e0 9a bd 08 de 84 3d d6 de a4 3d f8 85 a3 bc
       -0.07562388 0.064876616 0.08050315 -0.019961342
0001a0 48 1f a8 bd c3 55 30 bd 6d 85 c5 bd a8 21 c4 bc
       -0.082090914 -0.04305054 -0.096445896 -0.02394183
0001b0 58 60 5e 3d 5e 93 91 bd fe de 2b bd 4c c7 e0 bd
       0.0542911 -0.07108186 -0.04196071 -0.10975513
0001c0 dc 6b 04 bd 41 d4 05 bd 94 6f fa 3d c9 87 13 3d
       -0.032329425 -0.032673124 0.12228313 0.036018167
0001d0 73 eb a6 3d 3b d0 57 3d 8e ae 83 bd 1d 52 ff 3c
       0.08150377 0.05268882 -0.06429778 0.031167084
0001e0 10 03 8d 3d fa 6d bc 3d 44 61 e3 bd a9 57 ea bb
       0.0688535 0.09200664 -0.11102536 -0.007151563
0001f0 03 5c 9b 3d 0c 62 80 bd 8e 36 16 bd 40 4c 3f 3d
       0.07585909 -0.06268701 -0.03667312 0.046703577
000200 40 c7 6c bd b0 a1 e0 bd 96 df c8 bc e5 18 60 bd
       -0.057807207 -0.109683394 -0.024520677 -0.05471124
000210 88 22 86 3d ce c8 da bd c6 75 4a bb c2 35 31 3c
       0.06549555 -0.10682832 -0.0030892952 0.0108160395
000220 0e 50 9d bd 47 e3 00 be 64 f4 51 3d d2 2c 8f 3c
       -0.07681285 -0.125867 0.05125846 0.017477427
000230 b1 e4 e5 3d 3e 2f b8 bc f4 40 d7 3d 36 f5 de bd
       0.1122526 -0.022483464 0.10510436 -0.10886614
000240 60 70 e2 3c 34 a2 e6 3d 99 24 c6 bd e0 83 a9 bb
       0.027641475 0.112614065 -0.09674949 -0.0051731914
000250 f4 9b 11 3d 1d b6 24 3c cc c1 e9 3d 53 99 ec 3d
       0.03554912 0.010053185 0.11413917 0.11552682
000260 9e 4a a4 bd bb 8d 79 3d 6e bd 00 be c9 cd 7e 3d
       -0.080220446 0.06092618 -0.12572262 0.06220797
000270 24 2f 98 3d 28 69 70 3d 78 4b 1f bd 9e 4c a3 3d
       0.07430866 0.058694035 -0.038890332 0.07973598
000280 66 43 8b 3d 88 81 a9 bd ea b1 a7 3d f1 df ca bd
       0.067999646 -0.08276659 0.08188231 -0.09905995
000290 a0 84 2c bc 07 51 85 bd f7 62 21 bc 72 51 b8 3d
       -0.010529667 -0.06509595 -0.009850255 0.089999095
0002a0 31 7b a0 3d 87 db d1 bd 15 a4 12 bd d8 a3 4f 3d
       0.07835997 -0.1024695 -0.035801012 0.050693363
0002b0 6c 14 80 bd b0 0a c6 3c ae c0 dc 3d af 99 eb 3d
       -0.06253895 0.024175018 0.10778938 0.11503922
0002c0 2c a8 bc 3d e0 23 c2 3b ac 11 83 3d 9c bc 59 3d
       0.09211764 0.005924687 0.06399855 0.053158388
0002d0 f0 6a c7 bd 6f 37 f4 bd 69 0e 4f 3d 63 10 37 3d
       -0.097371936 -0.119246356 0.050550852 0.044693362
0002e0 30 47 b1 bd 26 d9 e7 bd 70 17 3b bd 70 7d 14 bd
       -0.08656156 -0.11320715 -0.04567665 -0.03625244
0002f0 b2 c1 d7 3d 3e 75 c3 3d 0d 9e 93 bd c0 f5 9d 3d
       0.10534991 0.095438465 -0.0720788 0.07712889
000300 06 0c a8 bd 00 34 47 3c c6 b7 cc bd b9 71 dc bc
       -0.08205418 0.012158394 -0.099959895 -0.026909696
000310 d8 1b bc bd 40 7e 81 3d 29 c0 9b 3b 74 f4 9d bd
       -0.09184998 0.063229084 0.004753132 -0.07712641
000320 98 2c a4 3c 5a 0d c1 bd b7 35 85 bd 36 fb 88 bd
       0.020040795 -0.09426375 -0.06504386 -0.0668854
000330 79 79 b7 3c c9 b7 be 3d 3c 53 54 bd d8 ec a3 bc
       0.02239679 0.09312398 -0.05183719 -0.020010397
000340 ed 3a de 3d f2 b1 25 bc 4e df d7 bc 8a dd f7 3d
       0.10851083 -0.010113226 -0.026351597 0.12102802
000350 d7 20 c6 bc 19 69 c3 bd ac d4 39 3d 8e 55 d1 3d
       -0.024185581 -0.0954153 0.045368835 0.102213964
000360 72 48 b2 bd a0 a7 0b 3d 44 ee 16 3d f1 6f df bc
       -0.08705224 0.034095407 0.03684832 -0.027275058
000370 cf 8c f1 bc 76 65 82 bd 52 17 e9 bd 28 1a f5 bc
       -0.029486088 -0.063670084 -0.11381401 -0.029919699
000380 64 b7 2e bd f0 0a 37 3d 26 da 86 bd de 41 dd bd
       -0.042655364 0.044688165 -0.06584577 -0.10803579
000390 82 ea c5 3d fa 8e e8 3a ed 87 72 3c 3f 55 d1 bc
       0.096638694 0.0017742806 0.014802915 -0.025553344
0003a0 e6 2c 97 3d 96 e0 ef 3d 06 3b cb bd ee a6 e9 3d
       0.073816106 0.11712758 -0.09923367 0.114087924
0003b0 b1 0b 87 3d b4 a4 b0 3d 95 2a 4b bd 1b e7 79 bc
       0.06594027 0.08625165 -0.049601156 -0.015252854
0003c0 bc 93 ed bd ac 05 ea bc 24 ca b5 3d 49 dc 8e 3d
       -0.11600444 -0.028567158 0.08876446 0.0697561
0003d0 24 a3 01 3d 31 0a a8 3d af 5d b4 3d e9 25 54 3d
       0.031649724 0.08205069 0.08806931 0.051793966
0003e0 f8 b0 dc bc 68 c6 8f bc cc 2b e3 bd d7 98 be bc
       -0.026939854 -0.017550662 -0.11092338 -0.02326624
0003f0 32 f0 55 bd 6c 3b 04 bd 54 b9 cd bd a8 5d 57 3d
       -0.05223102 -0.03228323 -0.10045114 0.052579552

head0.2.bias f4 [4]
000000 f1 29 79 bd 6b 78 b7 bb 93 68 4f bc 3c 99 cf 3d
       -0.060831014 -0.0055990717 -0.01265921 0.10136649

head1.0.weight f4 [64, 128]
000000 bf 72 3e 3d 3c d2 93 3d 8f 86 37 bd ce 4a 04 3d
       0.04649615 0.072178334 -0.04480606 0.0322979
000010 e3 79 ac 3d 58 f9 e6 bc 42 e1 a5 bd 47 ec 94 3d
       0.084216855 -0.028195068 -0.08099605 0.07271629
000020 b3 99 7f bd f8 3a 2c bd c7 c2 8e 3d 7c b4 53 3d
       -0.06240244 -0.042048424 0.069707446 0.051685795
000030 a1 f7 0c 3c 68 51 b9 bc bf d1 9e bd f4 ca 32 bb
       0.008603961 -0.022621825 -0.0775485 -0.0027281614
000040 55 74 ac 3c 56 d2 92 bd 68 c8 6d 3d 99 fe 8e bd
       0.021051565 -0.07169025 0.05805245 -0.069821544
000050 7e 71 82 bd 78 09 91 bd 3b bd aa bc 85 36 67 bd
       -0.06369303 -0.07081884 -0.020842185 -0.05644848
000060 42 32 3f bd 03 ad 6c ba 4f bc 1d 3d 53 21 93 3c
       -0.04667879 -0.00090284663 0.038509663 0.017960226
000070 f0 3e 6b 3d 1d 40 a4 3d 00 54 4a bc ff 08 96 3d
       0.05743307 0.08020041 -0.012349129 0.073259346
000080 4b 5a fa bb ea ba 9c bc 78 31 98 3c e0 d0 34 bc
       -0.0076401583 -0.019132096 0.018578276 -0.011036128
000090 e7 b0 47 bd 49 68 1f 3c 1d 61 88 bd 69 cb 7d 3d
       -0.04875269 0.009729453 -0.06659148 0.061961565
0000a0 89 65 f4 3b 5f 1e b2 bd 4a c5 1b 3d 61 b8 ab 3b
       0.007458393 -0.08697199 0.038029946 0.0052404855
0000b0 a1 e6 32 bd bd a9 2f bd bf d4 1c bd 10 8b b3 3d
       -0.043676976 -0.042886484 -0.038288828 0.087667584
0000c0 ef da 94 3d 30 f3 52 3c 84 e7 f1 3c 4d a4 2a bc
       0.07268321 0.012875363 0.02952934 -0.010415149
0000d0 65 57 2f 3d 23 0e 64 3d 55 3e 00 3d c1 3c ab bd
       0.042807955 0.055677544 0.031309444 -0.08361197
0000e0 c4 9c 8f 3d 76 6c 94 bd 9c 66 90 3d 80 8f b3 bb
       0.070123225 -0.0724725 0.07050821 -0.005479753
0000f0 7b 49 95 bd b1 ec a2 3d 87 b1 02 bd ec 5f fc bb
       -0.07289406 0.079553016 -0.031907585 -0.0077018645
000100 fb 91 51 3d d9 1c 97 3c a6 38 35 3d 1c 36 9c 3d
       0.05116461 0.018446373 0.044243477 0.07627508
000110 9b 67 83 bd ae e3 ee bb b8 07 8d bd 6d 38 52 bd
       -0.064162455 -0.007290325 -0.06886238 -0.051323343
000120 49 ee 57 bd d8 10 b1 3b 02 1e 4c bc 6a 5a 91 3a
       -0.05271748 0.0054036193 -0.012458326 0.0011089568
000130 d8 7f ae bc c2 f8 6d 3d b4 2c 83 3c 9a 1e 64 3c
       -0.021301195 0.058098562 0.016012527 0.013923312
000140 f8 4e 76 3c ed 69 af bd 42 2b 6b 3d 12 40 90 bd
       0.015033476 -0.085651256 0.0574143 -0.070434704
000150 9b 6e 84 3d 7c 5d 90 bd 31 cd bc bc 1f 0c b1 3d
       0.06466409 -0.07049081 -0.023047062 0.0864489
000160 ae f5 7b bc 24 1b 0b bd f2 1a 32 3a 7f 18 5e bd
       -0.015378399 -0.03396143 0.00067941763 -0.05422258
000170 a6 ca 98 ba 84 1b 30 bd 97 60 32 bb 63 a4 46 3c
       -0.0011657074 -0.04299499 -0.0027218217 0.012124154
000180 bf 54 b9 bc a4 c3 ba 3c f0 4c 52 3d c4 d6 aa bd
       -0.022623418 0.022798367 0.051342905 -0.083417445
000190 e7 95 cf bb 9e 9e 96 3c 76 93 db 3b 8c 30 8e bd
       -0.0063350084 0.018386181 0.0067009283 -0.06942853
0001a0 e2 4e 52 3d 96 fe a4 3d 91 11 6f bd a1 dc 96 3d
       0.05134476 0.08056371 -0.058366362 0.073663004
0001b0 99 f5 5e bc ad 60 97 3c 13 b5 a1 bd 12 a5 38 bd
       -0.01360836 0.018478716 -0.07895865 -0.0450793
0001c0 99 79 59 3d 66 b3 a5 3d 1a 96 7d bd 88 78 f5 3c
       0.05309448 0.08090858 -0.061910726 0.0299647
0001d0 09 7a 64 bd 0c 0c 94 bc 01 e7 e1 bc ef d5 93 3d
       -0.055780444 -0.01807215 -0.027575972 0.07218539
0001e0 f1 66 b5 3d de a6 e4 bc e1 e7 86 3d fd 92 78 bd
       0.08857525 -0.0279116 0.06587196 -0.060687054
0001f0 91 cf 98 bc 76 84 01 3d 1e 64 81 bd ad 43 22 3d
       -0.018653663 0.031620465 -0.06317924 0.039615322
000200 01 b0 05 3d 36 d2 52 bd eb cb 3f 3b c0 c4 8f 3d
       0.032638554 -0.051470004 0.0029265832 0.07019949
000210 e0 04 7a 3b 2e 12 01 bc 1b 50 83 bc 62 1f a1 bd
       0.0038149878 -0.0078778695 -0.016029408 -0.07867314
000220 45 09 ab bc 5a f6 1e 3d 51 c7 82 bd 43 39 ad 3c
       -0.020878443 0.038809158 -0.06385673 0.021145469
000230 fd 15 59 bd fc c1 cb 3c bb bd 58 3d 57 3b 6f bd
       -0.052999485 0.024872772 0.052915316 -0.0584062
000240 ab d3 a2 bd e9 1a 65 3d e4 53 1c bd de 46 b1 3d
       -0.07950529 0.055933867 -0.03816594 0.08656095
000250 0e 67 8e 3d c1 67 f2 bc 25 bb 89 3d a9 80 90 bc
       0.0695325 -0.02959049 0.06725148 -0.017639475
000260 95 8c 60 bd 4c b2 41 3c bb 50 5d bd 4b 8b 85 3d
       -0.05482157 0.011822294 -0.05403207 0.06520709
000270 b9 21 83 bc 04 a1 ab 3d 1c 97 95 3c f3 e1 a5 3c
       -0.016007291 0.08380321 0.018260531 0.020249343
000280 05 57 5a bd d5 6d 74 3d 0d 95 34 bd cd 62 a8 3d
       -0.053305645 0.059675056 -0.04408746 0.0822197
000290 a1 e4 a5 3d 42 11 a2 3d 04 f1 80 3d 7d af ad 3d
       0.08100248 0.07913448 0.0629597 0.08480737
0002a0 0c 32 0f 3d ea 45 7c 3d 18 98 8b 3d 25 68 93 bd
       0.034959838 0.061590113 0.06816119 -0.07197598
0002b0 5c ae 81 3d cd 91 41 3d fe a3 f9 3c a8 62 07 bc
       0.063320845 0.047258187 0.030473705 -0.008263268
0002c0 22 76 3e 3c 22 4a a2 bc da 69 b5 3d 97 b1 d5 3c
       0.011624845 -0.01981074 0.0885808 0.026085658
0002d0 18 8d 4e bc 07 2e a5 3d 85 56 a7 3d 41 2b 5b bd
       -0.012606882 0.0806542 0.08170799 -0.053508047
0002e0 df f2 a9 bd 23 0e 90 3c c0 b7 be 3c 48 34 03 bc
       -0.08298277 0.017584866 0.023280978 -0.00800807
0002f0 01 f8 f0 bc 57 57 7d 3d 46 f0 92 3b 39 d4 79 bc
       -0.029415132 0.061850872 0.004484209 -0.015248352
000300 69 39 8a bd b6 4d e8 bc ab 8d d4 bc 8b cc 83 3d
       -0.06749231 -0.028357368 -0.025946459 0.06435498
000310 35 5a b3 3d 02 41 9e bc 78 b3 8b bd d1 0d 99 3d
       0.0875744 -0.019318108 -0.0682134 0.074733384
000320 c5 d5 2c bd 95 5a 8f 3d 85 1b 3a ba 01 bd 07 3c
       -0.042196054 0.06999699 -0.00070994376 0.008284808
000330 6c 75 94 bb 08 23 48 3d 9a 9a 8c 3d e9 4a a3 3d
       -0.0045305993 0.048861533 0.068654254 0.07973272
000340 8b 0e 77 3c c5 2f 5f 3d 50 1a 4c bd 15 64 6b 3c
       0.015079151 0.054488916 -0.04982978 0.014367123
000350 e0 50 03 bc 01 d3 77 bd 6c 16 e9 3c fb 9c 62 bd
       -0.008014888 -0.060503963 0.028453074 -0.05532549
000360 dc 1f 9d 3d e2 45 7a bd ce f7 79 b9 12 ee 44 bd
       0.07672092 -0.0611018 -0.00023838805 -0.048078604
000370 3d 48 8d 3c 6c 56 89 bd b3 24 75 3d db 5c 86 bd
       0.01724636 -0.06705937 0.059849452 -0.065606795
000380 77 3d 74 bd 52 2f 2a bd 87 4c ab bd b1 c9 28 bd
       -0.05962893 -0.041549034 -0.08364206 -0.041207973
000390 f0 d3 b0 bd 5d 34 f4 3c ca d3 36 bd 09 23 4d 3c
       -0.08634174 0.029810125 -0.04463557 0.01252056
0003a0 3d dd 6c 3d c7 1f 57 bd 58 d8 6e bd aa 29 50 3d
       0.057828177 -0.05252054 -0.05831179 0.050820984
0003b0 a7 b9 eb bb c6 c8 d2 3c 31 28 78 bd 39 f4 13 bd
       -0.0071937623 0.025730502 -0.060585205 -0.03612158
0003c0 2a 73 8e bb 9c f4 9f 3c 82 54 6a 3d c6 3d 51 3d
       -0.0043472247 0.019525819 0.0572095 0.051084302
0003d0 8f b2 ad 3d c2 e6 80 bc 7b f8 b3 3c 76 59 04 bd
       0.08481323 -0.015735034 0.02196907 -0.03231188
0003e0 6f 43 60 3d 7c bb 52 bd 13 18 94 3d 99 84 70 bd
       0.05475181 -0.05144833 0.07231154 -0.058720205
0003f0 e8 8e a6 bd e2 71 82 3d 15 55 70 bd 4a 36 93 bd
       -0.08132726 0.06369378 -0.05867489 -0.07188089

head1.0.bias f4 [64]
000000 95 76 3f 3d 89 83 3e bd 64 01 5d bc 6e 05 7f 3c
       0.046743948 -0.04651216 -0.013489101 0.015565259
000010 35 92 11 bd d9 77 49 bd ae f1 83 bd 08 3a 8a bd
       -0.035539825 -0.04918656 -0.06442581 -0.0674935
000020 59 ed 11 ba ac 58 c1 3c 89 7f a0 3d 66 9e 11 bc
       -0.00055666786 0.023601852 0.078368254 -0.008887863
000030 6f 2a 91 bc a2 d5 d8 3b 76 ec 8b bc c7 33 a1 bd
       -0.01772043 0.006617264 -0.017080527 -0.07871204
000040 5e 84 97 bc d3 c5 81 3d d0 73 69 bd a4 dd dd bc
       -0.018495735 0.0633656 -0.056995213 -0.027083226
000050 e4 2d a4 bd 6a 17 bc 3c cc 65 92 3d 4f e2 a1 3d
       -0.080165654 0.022960383 0.071483225 0.07904493
000060 93 1a 3e ba 26 a7 9b 3d a5 1e b7 bb 06 d0 73 3d
       -0.00072518847 0.076002404 -0.00558837 0.05952456
000070 4e 62 93 bd 6c d9 d1 bc 8e 0e 00 bc ca 0a 02 bd
       -0.071964845 -0.02561637 -0.00781597 -0.03174857
000080 f1 79 2d 3d 62 98 2d bd 90 ae b0 3d 7d 60 46 3d
       0.04235262 -0.04238165 0.08627045 0.048431862
000090 90 cf 74 3c b6 66 b0 bc db 37 a7 bd 1b 3b 68 3d
       0.014942065 -0.021533351 -0.081649505 0.056696992
0000a0 08 ea 4e bc 93 29 9d 3b ca 20 54 bd d5 dc 1b 3d
       -0.01262904 0.004796216 -0.051789083 0.0380524
0000b0 09 81 44 bd 63 85 70 bd 4d 3b e2 bb f6 f2 21 3b
       -0.04797462 -0.058720957 -0.006904042 0.0024711466
0000c0 32 82 65 3c 27 95 c0 bc 08 99 81 bd 62 57 e5 bc
       0.014008092 -0.023508621 -0.063280165 -0.027995769
0000d0 8e 86 0f 3d 03 16 88 bd 56 bc 7a 3d a9 6d 5e 3d
       0.03504043 -0.066448234 0.061214767 0.0543038
0000e0 2c 49 3f bd 82 49 48 3d 9e 0f 77 3d 51 41 6f 3d
       -0.04670064 0.048898228 0.060317628 0.0584119
0000f0 4b 9e 7c 3d e1 6e 98 3d b5 49 91 3d 2b b4 81 bd
       0.061674397 0.074430235 0.070941366 -0.063331924
